model_mse.pkl (torch, 8719 bytes, 12 tensors)

weight_ih_l0 f4 [24, 6]
-0.1673564 0.22508183 0.42626613 0.10058536 0.09708236 -0.2202364 -0.27434844 -0.35959595
0.14830254 -0.39501703 0.116945475 0.36558616 -0.17691714 -0.071367264 0.071640596 -0.14217176
-0.08393821 0.08968106 -0.28845516 0.24289912 0.18750602 0.0043423106 0.27469936 -0.49951681
-0.08756395 0.2359851 0.4601622 -0.008359228 0.3698495 0.00094529416 -0.23375122 -0.057439063
0.59448045 -0.4236957 0.027004771 -0.16096015 -0.21221538 -0.118360974 0.49508366 0.007924394
-0.07856768 0.3632304 0.11935353 -0.30183616 -0.2710756 0.29499236 0.11073244 -0.32545176
0.25342873 0.118070275 0.06575279 0.55532616 -0.0505298 -0.34862974 -0.19106106 -0.28402013
-0.2038496 0.03615235 0.13446654 -0.011236593 0.3260609 0.20543197 -0.016086545 -0.2306534
-0.27461752 0.56516993 0.16882813 0.6473532 0.105299026 -0.02553862 -0.14102125 0.3138701
-0.31312603 0.5562973 0.20984834 0.17342104 -0.12530382 -0.3030983 0.15624985 0.2456401
0.22983664 -0.39137006 0.30875027 0.49443057 -0.37198576 -0.19165094 0.032371186 -0.110770166
0.22018994 -0.2997213 -0.08864178 0.12130089 0.2759108 -0.25845742 -0.17028452 0.07564281
0.023623647 0.17180547 -0.37677372 0.4177375 0.029504279 -0.2849234 0.4375648 0.04013637
0.10997069 -0.116028324 -0.094574705 -0.06682556 0.051766172 0.3074339 0.1158743 0.032211475
-0.1560485 0.3816173 -0.30075774 0.24071056 -4.5708734e-05 -0.19772393 -0.20420781 -0.13449514
0.28011706 -0.14906536 -0.16712363 -0.05850527 0.2876254 0.497999 -0.25596294 0.30754906
0.19851364 0.22894941 -0.010437703 -0.097664006 -0.12983817 0.2507789 0.02371669 0.09985583
0.21202746 0.4550095 -0.28154975 0.03440382 0.413036 0.26356757 -0.16279468 -0.18370676
00000000: 7a5f 2bbe da7b 663e 8e3f da3e b2ff cd3d
00000010: 1ed3 c63d a785 61be 6677 8cbe f61c b8be
00000020: 9fdc 173e ac3f cabe 1c81 ef3d 1c2e bb3e
00000030: c429 35be 0029 92bd 4eb8 923d 7995 11be
00000040: cce7 abbd b4aa b73d 65b0 93be 8cba 783e
00000050: 9401 403e f149 8e3b 65a5 8c3e abc0 ffbe
00000060: ba54 b3bd 14a6 713e 619a eb3e 25f5 08bc
00000070: ea5c bd3e 9ecd 773a 7b5c 6fbe 3945 6bbd
00000080: df2f 183f a5ee d8be 1c39 dd3c bdd2 24be
00000090: fd4e 59be 3d67 f2bd 9b7b fd3e 51d5 013c
000000a0: 18e8 a0bd 56f9 b93e a06f f43d 458a 9abe
000000b0: 6cca 8abe 3d09 973e b1c7 e23d 9da1 a6be
000000c0: 69c1 813e d4ce f13d 66a9 863d db29 0e3f
000000d0: 56f8 4ebd 997f b2be 83a5 43be 166b 91be
000000e0: f3bd 50be 7d14 143d 99b1 093e b019 38bc
000000f0: 74f1 a63e c25c 523e eec7 83bc 6830 6cbe
00000100: ab9a 8cbe faae 103f 48e1 2c3e f0b8 253f
00000110: 04a7 d73d 5e36 d1bc e067 10be 95b3 a03e
00000120: 0e52 a0be 8069 0e3f 7ce2 563e 4995 313e
00000130: a54f 00be b32f 9bbe f6ff 1f3e 1489 7b3e
00000140: 4c5a 6b3e a861 c8be 8414 9e3e 0126 fd3e
00000150: eb74 bebe 2540 44be a697 043d 78db e2bd
00000160: 7979 613e 1275 99be d289 b5bd 9a6c f83d
00000170: 2e44 8d3e 8854 84be 115f 2ebe 9eea 9a3d
00000180: 6186 c13c c6ed 2f3e 7ce8 c0be b1e1 d53e
00000190: f5b2 f13c 7be1 91be 7e08 e03e 0966 243d
000001a0: 5038 e13d 42a0 edbd 62b0 c1bd d7db 88bd
000001b0: c408 543d fa67 9d3e 814f ed3d 2ef0 033d
000001c0: 2ecb 1fbe 5863 c33e ebfc 99be d47c 763e
000001d0: 61b7 3fb8 2478 4abe da1b 51be 18b9 09be
000001e0: 816b 8f3e 97a4 18be 7522 2bbe 39a3 6fbd
000001f0: a343 933e baf9 fe3e 930d 83be 1277 9d3e
00000200: 2947 4b3e b771 6a3e e602 2bbc 1104 c8bd
00000210: 4cf4 04be 1866 803e 8149 c23c 3781 cc3d
00000220: ba1d 593e 01f7 e83e 4a27 90be 05eb 0c3d
00000230: 7479 d33e 54f2 863e a6b3 26be a01d 3cbe

weight_hh_l0 f4 [24, 6]
0.24997653 0.3278708 -0.19474828 -0.2337633 0.077101104 -0.41865394 0.4070807 -0.026336068
-0.25660974 0.14629257 0.084384866 -0.014119972 -0.09979194 0.008269776 -0.13572334 -0.35101905
-0.38324887 0.32979193 -0.2146959 -0.060290024 -0.2551111 -0.20265351 -0.1995482 -0.44613835
0.50880647 0.0054150233 -0.27214563 -0.2546363 0.005279615 0.42639503 -0.10230537 0.581333
-0.43849432 0.6608296 -0.44612035 -0.2665742 -0.16814002 0.21111935 -0.22312878 0.16157882
-0.47862074 0.38847122 0.052820176 -0.1854876 -0.101842105 -0.18784182 -0.47440702 -0.3728466
0.07265864 0.05026263 -0.3790997 0.40034023 -0.3114674 0.46328345 -0.2971243 0.18614031
0.45066863 -0.03199171 -0.43574554 -0.42279196 0.37196535 0.06747322 -0.40531683 0.013983505
-0.018704914 0.32535982 -0.0117418105 0.6777981 -0.19966927 -0.010779456 -0.45402408 -0.42955256
0.14071423 0.07729602 -0.17933622 0.23269795 0.03420068 0.3233464 0.3486852 0.17332132
-0.28892392 -0.33064374 -0.17157498 0.100351855 0.038134795 0.26076525 -0.21544927 0.035478927
0.04635956 -0.091561034 -0.13377348 0.16977134 0.39457342 -0.085671864 0.1108198 0.08929687
0.19691457 0.14304522 0.34765083 0.13584031 0.31789774 0.20602703 0.23366517 0.14763191
0.16471861 -0.3346148 -0.354265 0.40615067 0.20394914 -0.06140407 -0.2682922 0.0015363232
-0.34860843 -0.30877668 -0.11160526 -0.2806141 0.21160485 -0.11194727 -0.35328424 -0.19087577
-0.04979609 -0.05461011 -0.3912226 0.19971709 -0.1740741 0.23957208 0.020379875 -0.119806714
0.33680782 0.37675068 -0.42156357 -0.36255834 0.4067963 0.20855369 0.1381809 0.5648602
-0.1432331 0.33781517 0.041799072 0.6468186 -0.36344904 0.50719315 -0.08930377 -0.306685
00000000: d9f9 7f3e aede a73e 186c 47be a65f 6fbe
00000010: 2fe7 9d3d cf59 d6be e26c d03e bdbe d7bc
00000020: 5a62 83be b8cd 153e f9d1 ac3d 7457 67bc
00000030: b75f ccbd f47d 073c 0ffb 0abe c5b8 b3be
00000040: 3239 c4be 7dda a83e 3ed9 5bbe acf2 76bd
00000050: ec9d 82be 6784 4fbe 5d56 4cbe 3f6c e4be
00000060: 2441 023f 8270 b13b ac56 8bbe b05f 82be
00000070: 9f00 ad3b 7350 da3e 7a85 d1bd 3dd2 143f
00000080: 5482 e0be 212c 293f e369 e4be 6a7c 88be
00000090: e62c 2cbe ac2f 583e df7b 64be eb74 253e
000000a0: c70d f5be b3e5 c63e f859 583d 76f0 3dbe
000000b0: 9892 d0bd 9b59 40be 7ae5 f2be c0e5 bebe
000000c0: 0ece 943d 30e0 4d3d 5b19 c2be 65f9 cc3e
000000d0: a878 9fbe 7d33 ed3e ad20 98be 919b 3e3e
000000e0: 0abe e63e bd09 03bd 0a1a dfbe 3078 d8be
000000f0: 3e72 be3e 662f 8a3d b085 cfbe 121b 653c
00000100: 0c3b 99bc 9095 a63e b960 40bc 2d84 2d3f
00000110: 1a76 4cbe 519c 30bc d875 e8be 50ee dbbe
00000120: 6417 103e 604d 9e3d eaa3 37be 5f48 6e3e
00000130: 0316 0c3d a98d a53e de86 b23e 257b 313e
00000140: d6ed 93be 234a a9be 5ab1 2fbe 4685 cd3d
00000150: 3b33 1c3d 0683 853e bc9e 5cbe 5a52 113d
00000160: 86e3 3d3d 5a84 bbbd eafb 08be 8ad8 2d3e
00000170: 8705 ca3e bb74 afbd 7ef5 e23d 47e1 b63d
00000180: f9a3 493e 727a 123e 4aff b13e b919 0b3e
00000190: 7ec3 a23e c0f8 523e ec45 6f3e d22c 173e
000001a0: ffab 283e a252 abbe 3962 b5be fbf2 cf3e
000001b0: 0bd8 503e d682 7bbd 985d 89be 745e c93a
000001c0: ce7c b2be fa17 9ebe 4c91 e4bd a7ac 8fbe
000001d0: f1ae 583e 9c44 e5bd ace1 b4be f074 43be
000001e0: fcf6 4bbd daae 5fbd 544e c8be a382 4c3e
000001f0: 7b40 32be 6252 753e b2f3 a63c 395d f5bd
00000200: 1372 ac3e 77e5 c03e 2ed7 d7be 3fa1 b9be
00000210: 9b47 d03e 198f 553e 4b7f 0d3e ae9a 103f
00000220: b3ab 12be 1cf6 ac3e 8135 2b3d e795 253f
00000230: fe15 babe 69d7 013f e5e4 b6bd d105 9dbe

bias_ih_l0 f4 [24]
-0.18121967 -0.21885623 -0.01679547 -0.07045147 0.3082778 0.037874788 0.44601434 0.033810604
0.07569172 0.103872366 -0.055996846 0.5636571 0.32208255 0.26003584 -0.18886845 0.22677013
-0.022422705 -0.12646078 0.39864704 0.38226333 -0.22085615 0.37798893 0.108758636 -0.007317907
00000000: a691 39be d91b 60be a796 89bc dc48 90bd
00000010: 96d6 9d3e 9822 1b3d fe5b e43e fd7c 0a3d
00000020: 4304 9b3d 09bb d43d f35c 65bd d54b 103f
00000030: 01e8 a43e 6b23 853e bb66 41be 6e36 683e
00000040: d2af b7bc ef7e 01be 771b cc3e 05b8 c33e
00000050: 1d28 62be c487 c13e d9bc de3d 0ecb efbb

bias_hh_l0 f4 [24]
0.33321553 0.20067503 0.1977315 -0.16300139 -0.0040693847 0.29318625 -0.08736371 0.47230446
0.3214381 0.36234748 -0.20271201 0.34729877 -0.17337616 0.24820848 -0.3730742 0.46774882
-0.365043 0.040474128 0.020130742 0.48399803 -0.12527837 0.21783425 0.06407491 0.14077325
00000000: 3a9b aa3e c17d 4d3e 207a 4a3e d6e9 26be
00000010: 7958 85bb 821c 963e bfeb b2bd e4d1 f13e
00000020: 8993 a43e 9c85 b93e bd93 4fbe 25d1 b13e
00000030: 8589 31be 5d2a 7e3e 9503 bfbe c67c ef3e
00000040: ebe6 babe 33c8 253d 3ae9 a43c 97ce f73e
00000050: f948 00be f10f 5f3e b539 833d dd26 103e

weight_ih_l1 f4 [24, 6]
0.70784426 -0.5548919 -0.12083671 0.013540438 0.14194019 0.004775928 0.13451885 0.10404611
0.2595188 -0.049401876 0.48538187 0.013749242 0.37676322 0.3907749 0.29938993 -0.25769794
-0.30999887 0.36299887 0.26644826 0.03994298 -0.2243571 0.4472362 0.072059326 0.19639732
-0.21518385 -0.45050234 -0.02361247 0.25053322 0.07592658 -0.09587191 0.31136325 0.08138909
-0.12915862 0.045228336 -0.27424482 0.45900628 0.68532175 -0.2329011 -0.12689567 0.048763633
0.21152912 -0.29311144 0.4346428 -0.40446952 0.2108091 0.3573863 0.2976696 -0.12399832
0.2618192 0.33700088 -0.3717853 0.45222223 -0.14224674 -0.072935075 0.20511577 0.27677515
-0.3953221 0.4494938 -0.5265398 0.2946547 -0.3783314 -0.4987167 -0.105702005 -0.29944775
-0.10319025 0.26042423 0.19074114 0.018560788 -0.503812 -0.21814986 -0.1683129 -0.1361716
-0.00502348 0.2909613 -0.11460909 0.04779068 0.09207833 0.026938949 -0.22124286 -0.017188279
0.108204186 0.019626547 -0.008419073 -0.28024417 0.24579026 -0.3149404 0.34071624 0.25148502
0.16507706 -0.31596664 0.33734867 0.41156104 0.4928515 0.34883383 -0.331273 -0.0182062
-0.20501292 -0.078041635 0.3768152 -0.022232683 0.17311579 -0.459643 -0.17901215 0.029284213
0.46329385 0.029515605 0.34482297 -0.2621379 0.926295 -0.21182993 -0.29414603 -0.2909546
0.11096589 0.25746524 -0.17021587 -0.4988763 0.027715571 -0.10314582 0.64415693 0.04090539
0.42757922 0.076608226 -0.2678798 0.33101767 -0.2567531 0.122151434 0.5150966 0.54393566
-0.5415785 -0.10538563 -0.18815814 -0.08961449 -0.2341377 -0.5292829 -0.24400362 -0.46893707
-0.11352886 0.35789183 0.31365237 0.26331392 -0.5663001 -0.049104165 -0.42028356 0.24675013
00000000: 4835 353f 650d 0ebf 3d79 f7bd b7d8 5d3c
00000010: c558 113e 637f 9c3b 4fbf 093e 2016 d53d
00000020: a6df 843e 9f59 4abd f983 f83e 8044 613c
00000030: 1ce7 c03e a613 c83e a349 993e fcf0 83be
00000040: 2cb8 9ebe fdda b93e e86b 883e 409b 233d
00000050: debd 65be 25fc e43e d793 933d 611c 493e
00000060: 2859 5cbe 3ea8 e6be f06e c1bc e445 803e
00000070: 657f 9b3d 7e58 c4bd 016b 9f3e 53af a63d
00000080: 2842 04be 5941 393d d169 8cbe df02 eb3e
00000090: 3f71 2f3f a07d 6ebe f0f0 01be 60bc 473d
000000a0: 179b 583e b412 96be 8089 de3e a116 cfbe
000000b0: 57de 573e 56fb b63e 2668 983e d5f2 fdbd
000000c0: 2b0d 863e 618b ac3e a55a bebe ac89 e73e
000000d0: 21a9 11be fc5e 95bd de09 523e 79b5 8d3e
000000e0: a967 cabe 0d24 e63e 50cb 06bf fbdc 963e
000000f0: a7b4 c1be cc57 ffbe 4b7a d8bd 3751 99be
00000100: 6955 d3bd 5356 853e a551 433e cb0c 983c
00000110: d3f9 00bf ad62 5fbe 385a 2cbe 9170 0bbe
00000120: 019c a4bb e1f8 943e 2cb8 eabd 29c0 433d
00000130: 9093 bc3d 12af dc3c 7d8d 62be 6fce 8cbc
00000140: 289a dd3d dac7 a03c 27f0 09bc 2a7c 8fbe
00000150: 71b0 7b3e de3f a1be 5c72 ae3e a5c2 803e
00000160: f609 293e 61c6 a1be f7b8 ac3e 21b8 d23e
00000170: 0857 fc3e 599a b23e 9d9c a9be 2b25 95bc
00000180: e8ee 51be 4bd4 9fbd eced c03e 5121 b6bc
00000190: 4445 313e 5456 ebbe f64e 37be 72e5 ef3c
000001a0: da34 ed3e b6ca f13c a38c b03e f036 86be
000001b0: ab21 6d3f f2e9 58be 4f9a 96be 00f8 94be
000001c0: 1642 e33d 7cd2 833e 124d 2ebe b76c ffbe
000001d0: c40b e33c 1e3e d3bd 78e7 243f 698c 273d
000001e0: aaeb da3e c6e4 9c3d 8b27 89be 267b a93e
000001f0: 2475 83be 882a fa3d 5fdd 033f 5e3f 0b3f
00000200: e3a4 0abf 6cd4 d7bd 87ac 40be cd87 b7bd
00000210: cbc1 6fbe 167f 07bf 16dc 79be 8518 f0be
00000220: d281 e8bd 993d b73e 0b97 a03e 15d1 863e
00000230: 0bf9 10bf 7321 49bd 682f d7be 11ac 7c3e

weight_hh_l1 f4 [24, 6]
-0.32720837 0.054255508 0.48732454 -0.068722434 0.35826403 -0.23269477 -0.092752025 0.24336843
0.36063 -0.08630746 0.0018257411 0.1677325 -0.47224492 0.14536814 0.044043716 -0.32024103
0.03202592 -0.21750215 -0.43440697 -0.16791752 -0.34819174 -0.36575904 0.40469947 -0.44811285
0.1154118 0.20244731 -0.082674004 -0.040924374 -0.04714549 -0.4046466 -0.64745176 -0.040816806
-0.27906096 -0.38424608 -0.21502048 -0.051549524 -0.7540491 0.03900563 0.36548677 -0.4596891
-0.14442556 -0.10711587 0.070658 0.42730042 0.0027777748 -0.49034458 -0.192158 -0.05094594
-0.07431353 -0.1597472 -0.09338591 -0.51393723 0.46869433 -0.025733368 -0.4452369 0.17325988
-0.5390661 0.13805473 0.45085368 0.17795697 0.26946774 0.52520734 -0.2408091 -0.4805592
-0.09152166 -0.44644326 -0.5079329 -0.020767868 0.064391695 -0.41950256 -0.04441199 -0.5731106
0.54095465 -0.22745538 -0.110042736 0.3472457 -0.111272976 0.41369262 -0.4744453 0.41119856
0.1711062 -0.63689494 0.3191864 0.035815407 -0.025031783 0.42163214 0.05434146 0.16366431
0.054152142 0.053560857 0.19239862 0.15079325 0.45879513 0.105170436 0.28738523 0.077480495
0.15415849 0.3816855 0.39261317 0.059720468 0.17441022 -0.12816918 0.39294222 -0.009439581
-0.1829569 0.21728994 -0.17893384 0.24531685 -0.19756538 0.53424597 0.5360426 0.02227286
0.4576618 -0.6043769 -0.5464891 0.5238929 0.14144665 0.0070063756 0.31514093 0.23312469
-0.012994565 0.45283613 0.16748957 -0.47393632 -0.27437264 0.15036266 -0.094572246 0.24007858
-0.29953498 -0.6081869 -0.05354658 -0.4443917 -0.1570052 0.33026043 -0.22036768 -0.63584185
0.15137409 0.03255312 -0.3360335 0.120931834 -0.29170632 -0.527243 -0.23136143 0.062571794
00000000: db87 a7be 063b 5e3d 9a82 f93e 59be 8cbd
00000010: 626e b73e 8a47 6ebe c6f4 bdbd 9335 793e
00000020: 7fa4 b83e f7c1 b0bd b54d ef3a 12c2 2b3e
00000030: 16ca f1be 63db 143e 2f67 343d a2f6 a3be
00000040: 9c2d 033d e2b8 5ebe 976a debe 92f2 2bbe
00000050: 3046 b2be c544 bbbe c534 cf3e 0c6f e5be
00000060: 065d ec3d 594e 4f3e fd50 a9bd 51a0 27bd
00000070: a11b 41bd d72d cfbe 66bf 25bf 862f 27bd
00000080: 14e1 8ebe e7bb c4be 542e 5cbe 9825 53bd
00000090: 5d09 41bf 5ec4 1f3d 1521 bb3e 5f5c ebbe
000000a0: 4be4 13be 915f dbbd 24b5 903d 1fc7 da3e
000000b0: 540b 363b 720e fbbe 11c5 44be b1ac 50bd
000000c0: b131 98bd c594 23be 1d41 bfbd 6491 03bf
000000d0: b4f8 ef3e c9ce d2bc 17f6 e3be 0a6b 313e
000000e0: 3c00 0abf 385e 0d3e 4bd6 e63e 5a3a 363e
000000f0: adf7 893e fd73 063f a996 76be db0b f6be
00000100: b56f bbbd 3694 e4be e407 02bf 6021 aabc
00000110: cbdf 833d 0ac9 d6be 59e9 35bd 60b7 12bf
00000120: 017c 0a3f 10ea 68be 165e e1bd 30ca b13e
00000130: 16e3 e3bd 85cf d33e 7fea f2be 9e88 d23e
00000140: 7736 2f3e 8c0b 23bf 666c a33e 2db3 123d
00000150: 740f cdbc 2be0 d73e 2795 5e3d 9e97 273e
00000160: a3ce 5d3d a162 5b3d 2504 453e 8c69 1a3e
00000170: 32e7 ea3e 9963 d73d 2824 933e 18ae 9e3d
00000180: b9db 1d3e 486c c33e 9804 c93e 739d 743d
00000190: 9898 323e c83e 03be b92f c93e 79a8 1abc
000001a0: 0e59 3bbe 4181 5e3e 6f3a 37be 5734 7b3e
000001b0: 944e 4abe 58c4 083f 163a 093f 9375 b63c
000001c0: a652 ea3e 72b8 1abf b6e6 0bbf d81d 063f
000001d0: 64d7 103e bd95 e53b 275a a13e 3db8 6e3e
000001e0: 28e7 54bc 23da e73e 6382 2b3e c8a7 f2be
000001f0: 927a 8cbe abf8 193e 18af c1bd 29d7 753e
00000200: a65c 99be 23b2 1bbf a953 5bbd 4f87 e3be
00000210: f9c5 20be e517 a93e 11a8 61be 88c6 22bf
00000220: cf01 1b3e 6c56 053d 950c acbe 1cab f73d
00000230: 885a 95be 66f9 06bf 03ea 6cbe a425 803d

bias_ih_l1 f4 [24]
0.22746553 -0.044934604 0.3465597 0.47496325 0.14664043 0.27099594 0.3331872 0.4207425
0.519373 -0.096451595 0.16543905 -0.043805294 -0.13875243 0.28943855 -0.081830025 -0.3990577
0.121663235 -0.32615298 0.014504833 0.3969642 0.29750037 0.29374066 0.0740059 0.27178523
00000000: b9ec 683e 590d 38bd 4670 b13e 622e f33e
00000010: e928 163e fbbf 8a3e 8397 aa3e 906b d73e
00000020: a1f5 043f 6a88 c5bd db68 293e 2e6d 33bd
00000030: 1e15 0ebe 4a31 943e 8096 a7bd 4a51 ccbe
00000040: 932a f93d 86fd a6be aea5 6d3c e43e cb3e
00000050: f851 983e 2d65 963e 6890 973d 6f27 8b3e

bias_hh_l1 f4 [24]
0.054283105 0.056321938 0.48264813 0.22481078 0.2590348 0.46937925 -0.15152682 0.52764326
0.2891022 0.3908105 -0.079875164 -0.13891938 -0.1670425 0.22624567 -0.26307094 0.19921911
0.067390375 0.20534085 0.023938011 -0.041414496 -0.011148483 -0.063519135 0.17571197 0.38712686
00000000: f657 5e3d d5b1 663d a81d f73e cc34 663e
00000010: 36a0 843e 7a52 f03e d929 1bbe a113 073f
00000020: 3405 943e 5018 c83e 9795 a3bd e240 0ebe
00000030: 300d 2bbe f2ac 673e 3cb1 86be 1800 4c3e
00000040: f703 8a3d df44 523e a619 c43c 3fa2 29bd
00000050: 20a8 36bc 5216 82bd d7ed 333e 7e35 c63e

weight_ih_l2 f4 [24, 6]
-0.19268514 -0.056017328 0.059569765 0.101719685 -0.3748288 -0.123450294 -0.48772052 -0.17465143
0.31519446 -0.22309627 0.31084284 0.15747108 -0.048315298 0.45671755 -0.16939902 0.15255845
-0.18177076 0.1128624 0.26740396 0.25942963 -0.0955446 0.17169864 -0.33447364 -0.0041639656
0.07990369 -0.210462 0.40852526 -0.22479811 0.23269673 -0.24426118 0.13620795 -0.23972243
-0.38143897 0.17605919 -0.1080211 -0.47274354 -0.5455823 0.40511447 0.32581124 0.29436797
-0.41682246 0.0992312 -0.66676855 0.23835564 0.29962865 -0.59498376 0.6851316 0.025881907
-0.55624336 0.09463051 0.19107816 0.009131793 0.24668741 -0.43972892 -0.07230089 0.67117864
-0.057592478 0.05027973 -0.34306037 -0.5126107 -0.24093527 -0.034077734 -0.27885354 -0.41130868
-0.097645774 0.0011668346 -0.5652489 0.19754496 0.2312524 0.16920124 -0.033609398 -0.19247605
-0.10684258 0.16416796 -0.51644254 -0.41425946 0.06612229 -0.33374986 -0.13770421 -0.31169918
-0.16914071 0.046694957 -0.4018802 0.1555777 0.21814428 -0.33551407 -0.08794756 0.54479885
-0.45383337 -0.31606662 -0.29030585 -0.25876835 -0.5172341 -0.6206781 0.14034809 -0.4494201
0.62779 -0.06837234 -0.25859088 0.26715025 0.22295919 -0.07665924 0.058122415 -0.59676474
0.07283449 -0.0064165546 0.12907702 -0.40810806 -0.5337666 1.0050111 0.08618291 -0.3545997
-0.023261892 -0.9144438 -0.77107173 0.1851066 -0.10412139 -0.5286142 0.6607203 -0.48568514
-0.9673074 0.46937022 0.09536277 -0.038915835 0.17459813 -0.5658589 -1.009968 0.35124612
0.25642923 -0.5177689 -0.068810016 -1.0315493 -0.100322604 -0.11993481 -0.360369 0.25624982
0.16532163 0.06837361 -0.8111421 0.15100701 -0.13229167 0.1337827 -0.020379689 -0.27326083
00000000: 414f 45be 6d72 65bd 6dff 733d 6952 d03d
00000010: 8fe9 bfbe 82d3 fcbd 81b6 f9be d3d7 32be
00000020: 2b61 a13e 5973 64be cb26 9f3e 1940 213e
00000030: 43e6 45bd e2d6 e93e f076 2dbe 4838 1c3e
00000040: 1d22 3abe 6724 e73d 2ce9 883e f6d3 843e
00000050: e3ac c3bd c5d1 2f3e 2140 abbe e071 88bb
00000060: 8ca4 a33d 5a83 57be 392a d13e 7a31 66be
00000070: 0d48 6e3e 9a1f 7abe 197a 0b3e cc79 75be
00000080: f84b c3be dc48 343e 2b3a ddbd 710b f2be
00000090: 48ab 0bbf 2a6b cf3e bbd0 a63e 66b7 963e
000000a0: c169 d5be ba39 cb3d 58b1 2abf 8013 743e
000000b0: ed68 993e db50 18bf c964 2f3f 4b06 d43c
000000c0: f765 0ebf a4cd c13d fea9 433e 849d 153c
000000d0: a09b 7c3e 2624 e1be 7d12 94bd 5dd2 2b3f
000000e0: 17e6 6bbd 1ef2 4d3d 9ca5 afbe 743a 03bf
000000f0: bcb7 76be 1895 0bbd e4c5 8ebe 0d97 d2be
00000100: 82fa c7bd 79f0 983a 27b4 10bf 3a49 4a3e
00000110: 6ecd 6c3e 1743 2d3e 02aa 09bd 7118 45be
00000120: 48d0 dabd a51b 283e 9435 04bf d119 d4be
00000130: 206b 873d 43e1 aabe 5502 0dbe 0997 9fbe
00000140: 3933 2dbe 3643 3f3d 3ec3 cdbe c34f 1f3e
00000150: 3761 5f3e 80c8 abbe da1d b4bd f077 0b3f
00000160: d95c e8be 7cd3 a1be f8a2 94be 497d 84be
00000170: 7469 04bf c3e4 1ebf 69b7 0f3e 641a e6be
00000180: d8b6 203f cc06 8cbd 0666 84be ebc7 883e
00000190: 6a4f 643e 85ff 9cbd c511 6e3d 93c5 18bf
000001a0: 402a 953d f641 d2bb c42c 043e 8af3 d0be
000001b0: eea4 08bf 34a4 803f aa80 b03d 188e b5be
000001c0: b98f bebc fd18 6abf f564 45bf 968c 3d3e
000001d0: 983d d5bd 4353 07bf f724 293f b9ab f8be
000001e0: 75a1 77bf 4b51 f03e 8e4d c33d 3666 1fbd
000001f0: dac9 323e 21dc 10bf a246 81bf 88d6 b33e
00000200: b14a 833e 818c 04bf 44ec 8cbd cf09 84bf
00000210: f075 cdbd 62a0 f5bd 4982 b8be 2d33 833e
00000220: 134a 293e 7707 8c3d 02a7 4fbf 95a1 1a3e
00000230: 7877 07be 55fe 083e 4ef3 a6bc d8e8 8bbe

weight_hh_l2 f4 [24, 6]
-0.02363657 -0.6049061 0.059197955 0.33397755 0.0026997623 0.06648595 -0.080840304 0.24122563
0.12062382 0.20572746 0.1762615 -0.07932361 -0.026625125 -0.25454625 -0.39971378 -0.2311567
0.29618385 0.40043807 -0.055174828 -0.41300362 0.3029266 0.56102514 0.4586427 0.41051528
-0.1619848 0.096094646 -0.3163875 0.21575359 0.068587035 0.3406523 0.33914012 -0.5261484
-0.44544426 0.02253831 0.04153023 0.016184155 -0.1776779 -0.54471976 0.24631274 0.39306897
0.16123597 0.36961824 -0.07512628 -0.03656014 -0.39511663 0.5001446 -0.4796895 -0.28460786
0.28910783 -0.3976867 -0.20793757 0.35207966 -0.111742124 0.29237953 -0.19164199 0.08636984
-0.21563657 -0.014012936 0.5610759 0.1005782 0.25763234 -0.41268718 -0.119220406 -0.03213685
-0.021973189 0.29065374 0.38853693 -0.081047595 0.19234848 -0.013335495 0.01378926 0.028117895
-0.005527643 0.1588955 -0.34930402 -0.0027082018 0.36747816 0.4092715 0.2755774 -0.16140321
-0.019886093 -0.36450866 0.25524688 0.43646207 0.23474197 0.34165376 -0.07695055 -0.105219066
-0.16559213 0.08373404 0.055973805 0.18414482 0.14266118 0.49343848 0.26635706 0.07906575
-0.29665586 -0.27274257 0.4188854 0.31325614 0.18000151 -0.06096961 -0.308608 -0.08375263
0.5192522 0.16529125 0.30514884 0.26942497 0.45825276 -0.7403669 0.13991731 0.2752404
0.2122747 0.09846127 0.6656155 -0.11327561 -0.88999957 0.3539125 -0.13783146 -0.82780236
0.5767483 -0.27803674 -0.6619144 -0.15800044 -0.35010839 -0.24477148 0.17758726 -0.11622543
-0.10900149 0.5165788 0.18835196 0.25228733 0.22565849 -0.4026595 -0.08033555 0.17302805
-0.18149911 0.1887618 0.38456443 -0.52014023 -0.6526654 0.261528 -0.27075094 -0.059989206
00000000: 7ba1 c1bc 20db 1abf 8e79 723d 1bff aa3e
00000010: 7fee 303b c929 883d 9a8f a5bd da03 773e
00000020: 9f09 f73d 38aa 523e e57d 343e 6b74 a2bd
00000030: ef1c dabc e353 82be 49a7 ccbe 58b4 6cbe
00000040: 69a5 973e 3806 cd3e 00ff 61bd 3675 d3be
00000050: 3219 9b3e 589f 0f3f 37d3 ea3e 0f2f d23e
00000060: 58df 25be 45cd c43d 8bfd a1be 82ee 5c3e
00000070: 5c77 8c3d fa69 ae3e c6a3 ad3e a9b1 06bf
00000080: 4511 e4be 43a2 b83c 9a1b 2a3d a294 843c
00000090: 32f1 35be c172 0bbf 6839 7c3e 5640 c93e
000000a0: 0b1b 253e 9a3e bd3e cfdb 99bd 16c0 15bd
000000b0: ba4c cabe 7a09 003f dd99 f5be 1fb8 91be
000000c0: f105 943e 979d cbbe 96ed 54be c943 b43e
000000d0: 0ed9 e4bd c5b2 953e cc3d 44be ace2 b03d
000000e0: d5cf 5cbe 8396 65bc aca2 0f3f f1fb cd3d
000000f0: 63e8 833e bc4b d3be d429 f4bd eea1 03bd
00000100: 1e01 b4bc 91d0 943e 50ee c63e 48fc a5bd
00000110: 00f7 443e 1f7d 5abc 59ec 613c 8057 e63c
00000120: 3b21 b5bb 80b5 223e fad7 b2be 167c 31bb
00000130: 1926 bc3e 098c d13e 7b18 8d3e e246 25be
00000140: 29e8 a2bc e1a0 babe b8af 823e f577 df3e
00000150: 3360 703e 3eed ae3e 4098 9dbd 187d d7bd
00000160: fc90 29be c17c ab3d ca44 653d 7690 3c3e
00000170: c615 123e f8a3 fc3e f45f 883e 39ed a13d
00000180: 47e3 97be eaa4 8bbe 2678 d63e 1c63 a03e
00000190: 5152 383e 45bb 79bd de01 9ebe 8086 abbd
000001a0: b6ed 043f 1c42 293e 783c 9c3e 12f2 893e
000001b0: 1ba0 ea3e af88 3dbf 7c46 0f3e 4fec 8c3e
000001c0: 8a5e 593e 10a6 c93d c765 2a3f 0bfd e7bd
000001d0: 03d7 63bf 0534 b53e b123 0dbe dbea 53bf
000001e0: c7a5 133f d55a 8ebe 3973 29bf deca 21be
000001f0: 6841 b3be 60a5 7abe 6fd9 353e 9907 eebd
00000200: 2c3c dfbd 823e 043f 56df 403e ce2b 813e
00000210: 0513 673e 6329 cebe f786 a4bd 442e 313e
00000220: e7da 39be c64a 413e a1e5 c43e e927 05bf
00000230: 1415 27bf ffe6 853e de9f 8abe 3eb7 75bd

bias_ih_l2 f4 [24]
0.22876447 -0.29397655 0.59789526 0.10583939 0.2425913 0.42471382 0.7451694 0.09112303
0.16364382 0.5291175 0.42460153 0.43029988 0.3103946 0.033074997 -0.28611147 0.1565914
0.23106727 0.23897707 0.73163396 0.5993224 0.44975433 0.54552835 0.2376159 0.6117633
00000000: 3c41 6a3e 1884 96be aa0f 193f 52c2 d83d
00000010: db69 783e 1774 d93e 6cc3 3e3f b69e ba3d
00000020: 3f92 273e 3f74 073f 5f65 d93e 4450 dc3e
00000030: 0aec 9e3e a679 073d 347d 92be 7f59 203e
00000040: e69c 6c3e 68b6 743e 5d4c 3b3f 316d 193f
00000050: 3346 e63e bfa7 0b3f 9551 733e 859c 1c3f

bias_hh_l2 f4 [24]
0.030913604 0.27319083 0.3608692 0.49214134 0.006380655 0.2985838 0.7989733 0.0071342327
0.39066437 0.2297927 0.14815508 0.17740269 -0.42383927 0.067333415 0.44969934 -0.26994553
0.25273982 -0.25267202 0.9393365 0.058218792 0.42041847 0.9527301 0.3192585 0.21095617
00000000: 873e fd3c abdf 8b3e d9c3 b83e f3f9 fb3e
00000010: d014 d13b fadf 983e 8489 4c3f 48c6 e93b
00000020: 2905 c83e c74e 6b3e f7b5 173e 0da9 353e
00000030: 7601 d9be 1ae6 893d fe3e e63e 4d36 8abe
00000040: 1d67 813e 3a5e 81be 5b78 703f d476 6e3d
00000050: 1741 d73e 1fe6 733f da75 a33e e504 583e
