model_discontinous.pkl (torch, 8719 bytes, 12 tensors)

weight_ih_l0 f4 [24, 6]
-0.018230515 -0.052833103 -0.33343217 0.20066223 0.0017991175 0.21853203 -0.46318907 0.03945035
-0.14180598 -0.006909808 0.25578722 -0.38951814 -0.22211076 0.41038644 0.12664787 -0.2466647
-0.45798436 0.023716902 -0.27424496 0.07322938 0.3701931 0.1723655 0.18646565 0.21125965
0.39234918 -0.2821504 -0.16703683 0.014437015 -0.36376283 -0.09526403 0.039634258 0.23015852
-0.06913103 0.40417287 -0.35491082 0.26897535 -0.19370079 -0.2940399 0.1509917 -0.0024509244
0.017534783 -0.39539394 0.010360607 0.1515689 0.24518938 -0.64350325 -0.33409595 -0.046275485
-0.3605828 0.42128697 -0.014270543 -0.1481981 -0.4624738 -0.12067498 -0.30930436 0.06302484
0.26061046 -0.32175112 0.42621946 -0.26932427 -0.11466858 -0.08709893 -0.29003072 0.19312999
-0.30149707 0.54314494 0.50342256 0.19710612 0.2291596 0.34636915 -0.6240991 -0.27680516
-0.010541718 -0.14367045 -0.1038601 0.39227906 0.15001209 -0.4900338 -0.4456935 -0.30100763
-0.033250675 0.18955965 -0.13320504 -0.36080083 0.13890988 -0.18109083 0.32512963 0.22192399
-0.30301958 0.45584312 0.39464796 -0.09150803 0.024874166 -0.09605236 -0.18749554 0.30592152
0.22887969 0.035776924 -0.5277741 0.5044981 0.08452581 0.24088179 -0.12134895 0.20412737
-0.23654622 -0.1909114 0.2574328 0.3651526 -0.27873665 0.035710007 -0.1067557 0.1390889
0.12888566 -0.3761375 -0.38362443 0.20118572 -0.08892758 -0.13026525 -0.24198888 -0.30746907
0.3509602 0.17878103 0.066325635 -0.5648874 0.036917903 -0.3068038 -0.029961072 0.16936271
-0.18039007 -0.21620592 0.30895442 0.023726383 0.27888265 0.15550295 -0.25612217 0.12668625
0.16149367 0.14302392 -0.117132775 -0.18843032 -0.2514544 0.20869923 -0.18545769 0.3474873
00000000: 2958 95bc 8667 58bd 9fb7 aabe 667a 4d3e
00000010: 5ed0 eb3a dcc6 5f3e 1e27 edbe b196 213d
00000020: 9635 11be ac6b e2bb 8bf6 823e ec6e c7be
00000030: 0171 63be 2c1e d23e fbaf 013e ac95 7cbe
00000040: ed7c eabe f349 c23c d669 8cbe 49f9 953d
00000050: f389 bd3e 9580 303e daf0 3e3e 7354 583e
00000060: fee1 c83e 0476 90be b40b 2bbe 3b89 6c3c
00000070: 1f3f babe ca19 c3bd 8857 223d adae 6b3e
00000080: 9294 8dbd bfef ce3e dfb6 b5be 23b7 893e
00000090: 8059 46be 668c 96be 919d 1a3e b09f 20bb
000000a0: 1ba5 8f3c 1371 cabe 89bf 293c e134 1b3e
000000b0: ed12 7b3e a1bc 24bf a00e abbe 5d8b 3dbd
000000c0: 4f9e b8be edb2 d73e ffce 69bc 3ec1 17be
000000d0: 5ec9 ecbe 7224 f7bd 245d 9ebe 2b13 813d
000000e0: bc6e 853e 90bc a4be 7039 da3e dfe4 89be
000000f0: 5cd7 eabd ec60 b2bd e87e 94be dec3 453e
00000100: d35d 9abe 8c0b 0b3f 4de0 003f 30d6 493e
00000110: d0a8 6a3e 4c57 b13e f5c4 1fbf 68b9 8dbe
00000120: 2cb7 2cbc 591e 13be 9bb4 d4bd cdd8 c83e
00000130: c59c 193e b6e5 fabe f031 e4be ac1d 9abe
00000140: dc31 08bd ed1b 423e e766 08be e3ba b8be
00000150: 643e 0e3e e06f 39be 6477 a63e 0b40 633e
00000160: 6225 9bbe 4564 e93e 4c0f ca3e 9068 bbbd
00000170: e8c4 cb3c 1ab7 c4bd d5fe 3fbe bfa1 9c3e
00000180: 705f 6a3e d38a 123d 341c 07bf ca26 013f
00000190: de1b ad3d b7a9 763e cc85 f8bd c406 513e
000001a0: 2c39 72be 477e 43be 3bce 833e 48f5 ba3e
000001b0: 92b6 8ebe a844 123d bca2 dabd 526d 0e3e
000001c0: 9afa 033e 1895 c0be 6c6a c4be a103 4e3e
000001d0: aa1f b6bd 4164 05be efcb 77be 966c 9dbe
000001e0: 0eb1 b33e 6012 373e bcd5 873d 769c 10bf
000001f0: 3a37 173d 6315 9dbe ec70 f5bc 6b6d 2d3e
00000200: 2db8 38be 1665 5dbe 462f 9e3e d55d c23c
00000210: b5c9 8e3e 2a3c 1f3e 7222 83be 0aba 013e
00000220: 995e 253e dd74 123e 4fe3 efbd e1f3 40be
00000230: a2be 80be 40b5 553e 9fe8 3dbe dbe9 b13e

weight_hh_l0 f4 [24, 6]
-0.13978568 0.25903058 -0.027035695 -0.24476205 -0.39273268 0.097226754 -0.21958256 0.42315394
-0.41091698 -0.0906179 -0.1936277 0.42713624 -0.29591542 -0.30336118 0.045998894 -0.40755287
-0.5135344 0.1346645 -0.29499158 -0.3362515 -0.20342307 -0.19948336 -0.27710587 -0.20167969
0.034232743 0.2437128 -0.012832336 0.100161396 -0.32278132 0.046630643 0.2651682 0.2579955
-0.066217326 0.17576052 0.42215726 -0.238031 0.2399512 -0.0352158 0.09665919 0.17411578
0.27593756 -0.1330953 0.2729554 0.35929886 0.04642192 -0.07373884 0.027834587 0.17270371
0.05757804 -0.14426306 0.1668889 0.28256834 -0.09113782 -0.24884772 -0.10790807 -0.3801711
0.11816774 -0.31188074 0.27003685 0.18326531 0.2545937 -0.17737563 0.3915596 0.31810576
-0.069292895 0.029440854 -0.23867725 -0.1751045 0.7127094 0.11536664 0.037577745 -0.079945594
0.014665635 0.34293166 -0.38935643 0.114702076 0.024354694 -0.08425791 -0.13989975 -0.09505305
0.3218336 -0.09926713 -0.14086488 -0.1375209 -0.30825096 -0.312026 -0.16893655 0.13946442
0.25813204 -0.308649 -0.3072052 -0.38639623 -0.049393527 0.50582623 0.21095356 -0.17393479
0.13334693 0.24991539 0.28518578 0.1375507 -0.012618113 -0.090653695 -0.35583866 -0.4701861
-0.27498138 -0.29348615 -0.20514354 0.054985546 0.1848561 0.40404746 0.14126603 0.3313098
0.039194528 -0.15973225 -0.2046851 0.3789063 0.019350773 -0.28272718 0.1626177 -0.09335651
0.10224954 0.35655418 0.34728563 0.13818383 -0.5902003 -0.21573481 -0.28625026 0.31639206
-0.24710725 0.33696738 -0.20345837 0.001678759 -0.1647814 0.11884487 -0.05175144 0.24325965
-0.08177267 -0.08719965 0.018127067 0.024930567 -0.025957478 0.35595605 0.6070376 0.011121377
00000000: fa23 0fbe a89f 843e f679 ddbc e7a2 7abe
00000010: 4214 c9be d21e c73d 40da 60be a2a7 d83e
00000020: b663 d2be e195 b9bd 5746 46be 9ab1 da3e
00000030: 3a82 97be 2852 9bbe 5669 3c3d c5aa d0be
00000040: fe76 03bf 7ee5 093e 2309 97be 2829 acbe
00000050: 234e 50be 5e45 4cbe d2e0 8dbe 1f85 4ebe
00000060: a237 0c3d d98f 793e b83e 52bc 6b21 cd3d
00000070: 9843 a5be c6ff 3e3d 20c4 873e fc17 843e
00000080: f39c 87bd 91fa 333e ff24 d83e 66be 73be
00000090: c4b5 753e 713e 10bd 41f5 c53d 684b 323e
000000a0: b047 8d3e 224a 08be cfc0 8b3e 05f6 b73e
000000b0: e924 3e3d 6404 97bd 5c05 e43c 3ed9 303e
000000c0: f3d6 6b3d b2b9 13be ece4 2a3e ccac 903e
000000d0: 77a6 babd f0d1 7ebe e8fe dcbd c9a5 c2be
000000e0: ee01 f23d d5ae 9fbe 4542 8a3e e7a9 3b3e
000000f0: 1b5a 823e f5a1 35be 807a c83e c2de a23e
00000100: 6fe9 8dbd f22d f13c cf67 74be 984e 33be
00000110: 2074 363f 5845 ec3d 1feb 193d 84ba a3bd
00000120: 2248 703c bd94 af3e ba59 c7be ece8 ea3d
00000130: 7f83 c73c 698f acbd e141 0fbe 2cab c2bd
00000140: 60c7 a43e 914c cbbd e23e 10be 47d2 0cbe
00000150: 12d3 9dbe dfc1 9fbe b4fd 2cbe c3cf 0e3e
00000160: e229 843e 3e07 9ebe 004a 9dbe bad5 c5be
00000170: de50 4abd d47d 013f 3604 583e f61b 32be
00000180: 198c 083e d2e9 7f3e df03 923e 17da 0c3e
00000190: 34bc 4ebc a5a8 b9bd 7c30 b6be 3cbc f0be
000001a0: 5cca 8cbe d143 96be 2611 52be 8638 613d
000001b0: eb4a 3d3e 4fdf ce3e 0ba8 103e 70a1 a93e
000001c0: 718a 203d da90 23be f998 51be 0200 c23e
000001d0: 8385 9e3c 9ec1 90be 4185 263e b331 bfbd
000001e0: 3568 d13d 458e b63e 6ccf b13e 1080 0d3e
000001f0: 5e17 17bf 96e9 5cbe 658f 92be 24fe a13e
00000200: af09 7dbe fd86 ac3e 6457 50be ce09 dc3a
00000210: 75bc 28be f064 f33d 51f9 53bd 0f19 793e
00000220: 6e78 a7bd bb95 b2bd 377f 943c 303b cc3c
00000230: c7a4 d4bc df3f b63e d166 1b3f 7036 363c

bias_ih_l0 f4 [24]
-0.23408133 0.2844974 -0.26210096 0.14242561 -0.16928524 -0.15780498 0.41234735 -0.14648989
0.21008672 -0.050991155 0.101337165 0.1467809 -0.30881932 0.14541563 0.30989987 -0.031365197
-0.067602165 -0.0643319 0.33306462 0.5749191 0.26973072 0.044654734 0.3001708 0.47772783
00000000: 04b3 6fbe a5a9 913e 1932 86be 05d8 113e
00000010: 1c59 2dbe a197 21be 311f d33e 7201 16be
00000020: f920 573e 1adc 50bd dc89 cf3d bb4d 163e
00000030: 911d 9ebe d6e7 143e 32ab 9e3e cb78 00bd
00000040: 0173 8abd 71c0 83bd 7287 aa3e e62d 133f
00000050: 251a 8a3e e2e7 363d fdaf 993e be98 f43e

bias_hh_l0 f4 [24]
0.39891282 0.45744005 0.31321102 0.32190835 -0.007097759 -0.2509029 -0.012655421 0.53325295
0.00040786993 -0.0673069 0.30181712 -0.11202492 0.20361179 0.24814048 -0.31789777 0.16445749
-0.1874056 -0.2728923 0.6047549 0.19883566 -0.08487533 0.23751608 0.2681876 -0.20227182
00000000: 4d3e cc3e 9535 ea3e 325d a03e 2cd1 a43e
00000010: 5194 e8bb 5876 80be af58 4fbc 4483 083f
00000020: 60d7 d539 33d8 89bd c687 9a3e 526d e5bd
00000030: 9c7f 503e 8a18 7e3e 7fc3 a2be 8b67 283e
00000040: 41e7 3fbe 8ab8 8bbe 38d1 1a3f 939b 4b3e
00000050: 1ed3 adbd 6a37 733e e34f 893e 5820 4fbe

weight_ih_l1 f4 [24, 6]
-0.20294411 0.50526255 -0.4245807 -0.033335872 -0.33182144 -0.39382768 0.37625414 0.31832594
-0.55208445 0.29409972 -0.3134557 -0.20592697 0.3326622 -0.16487795 -0.31959745 -0.217474
0.13200124 0.07582328 0.19794947 0.30326924 -0.47100964 0.040867217 -0.31070465 0.2648992
0.39027438 0.4069632 0.85118616 -0.18066528 -0.4079622 -0.4608177 0.0031641375 -0.15636842
-0.04787583 -0.14074765 0.6032815 -0.20965889 -0.06943849 -0.20498912 -0.3639347 -0.57793766
0.1566416 -0.34422442 0.11244994 0.14828044 0.23894428 0.43585712 -0.26053783 0.068028174
0.19255854 -0.018133994 0.36975 0.3013001 0.17247362 -0.22131851 -0.011426643 0.1642713
-0.20855443 -0.005511139 0.12032981 0.1805787 0.048074104 0.37082523 -0.07299012 0.19639131
0.25764558 -0.6557149 0.4369086 0.03510534 0.3451865 0.093299 -0.0052096047 -0.14544827
-0.07266826 0.29369113 -0.34174833 -0.37575963 0.0024466915 -0.12427938 0.06313091 -0.02704158
-0.4959788 0.038556974 0.41789633 0.17763469 -0.30261737 -0.10787957 0.28903478 0.4200208
-0.15756992 0.047618825 -0.1642979 -0.4301782 0.17034404 0.36463922 0.42002037 0.13626648
-0.4555581 -0.39035392 -0.0058454736 -0.3172767 -0.37317356 0.392474 -0.3441098 0.03099045
0.2060091 -0.08804137 -0.030500537 0.5883332 0.18838675 -0.20100865 -0.45342463 0.10599028
-0.59937215 -0.20446895 0.33368686 -0.14365661 -0.5036681 0.106477216 -0.21606016 -0.34836835
-0.34286168 -0.02557679 0.07639303 -0.18491837 -0.22920452 -0.40865982 0.01844869 -0.25014597
-0.41221204 -0.14944293 0.1401315 -0.03536017 0.20967427 0.40373844 0.13728726 0.14189935
0.42123094 -0.25932327 0.37528712 0.20165792 -0.1896367 0.36026615 0.5630298 -0.60642666
00000000: 95d0 4fbe e358 013f a462 d9be 328b 08bd
00000010: 80e4 a9be c8a3 c9be 62a4 c03e 9efb a23e
00000020: 6855 0dbf 3d94 963e 447d a0be 85de 52be
00000030: b352 aa3e c4d5 28be 47a2 a3be 81b1 5ebe
00000040: 552b 073e 3c49 9b3d 44b3 4a3e 1b46 9b3e
00000050: 2d28 f1be 6264 273d ae14 9fbe dea0 873e
00000060: 0bd2 c73e 7b5d d03e 56e7 593f 5200 39be
00000070: 6ce0 d0be 4cf0 ebbe 6b5d 4f3b 0b1f 20be
00000080: 7219 44bd 2720 10be a870 1a3f d2b0 56be
00000090: c435 8ebd abe8 51be a655 babe b9f3 13bf
000000a0: a866 203e 2f3e b0be 274c e63d d4d6 173e
000000b0: cfad 743e aa28 df3e 3765 85be 5b52 8b3d
000000c0: 112e 453e be8d 94bc df4f bd3e 0244 9a3e
000000d0: ed9c 303e 52a1 62be d036 3bbc bc36 283e
000000e0: 4b8f 55be c996 b4bb 7a6f f63d 9fe9 383e
000000f0: 5ae9 443d cedc bd3e d87b 95bd ce1a 493e
00000100: 1fea 833e efdc 27bf 7cb2 df3e 9eca 0f3d
00000110: 49bc b03e 8c13 bf3d 55b5 aabb 64f0 14be
00000120: 19d3 94bd af5e 963e a3f9 aebe 9163 c0be
00000130: ac58 203b 3086 febd c74a 813d 4e86 ddbc
00000140: eff0 fdbe ebed 1d3d 82f6 d53e dee5 353e
00000150: aaf0 9abe f7ef dcbd 5efc 933e f70c d73e
00000160: 025a 21be f50b 433d b53d 28be 5140 dcbe
00000170: ab6e 2e3e feb1 ba3e e90c d73e 7189 0b3e
00000180: e93e e9be 78dc c7be 638b bfbb 1772 a2be
00000190: 9b10 bfbe 5af2 c83e 292f b0be afdf fd3c
000001a0: 0df4 523e 094f b4bd 43dc f9bc 019d 163f
000001b0: 75e8 403e 36d5 4dbe 4627 e8be 6f11 d93d
000001c0: 7470 19bf 4f60 51be 01d9 aa3e b81a 13be
000001d0: 65f0 00bf ba10 da3d e03e 5dbe 565d b2be
000001e0: 918b afbe 6b86 d1bc f373 9c3d 3e5b 3dbe
000001f0: 97b4 6abe dc3b d1be b521 973c 2213 80be
00000200: 750d d3be 9107 19be a27e 0f3e d3d5 10bd
00000210: dab4 563e ceb6 ce3e 0895 0c3e 104e 113e
00000220: 95ab d73e 05c6 84be a225 c03e 6a7f 4e3e
00000230: 2030 42be ce74 b83e b922 103f c73e 1bbf

weight_hh_l1 f4 [24, 6]
-0.20508802 0.18897688 -0.116488114 -0.5178387 0.21606518 0.28409323 0.0141916815 0.46505433
-0.18861634 0.038983606 0.01756063 0.1618872 0.20240425 0.054093834 -0.30648628 -0.020763058
0.11654829 0.18281089 0.4918636 -0.21934822 0.109757535 0.3164099 -0.16885996 -0.13489585
0.57865185 -0.06939883 -0.19517569 -0.0636044 -0.18195267 -0.452237 -0.12336599 0.1580696
0.020459622 0.27030995 -0.48331138 0.035702817 0.5589968 0.50287735 -0.34266463 -0.021932771
0.26495013 -0.28425893 0.12391178 0.22214225 -0.1863816 -0.06691259 -0.15354994 -0.32882485
0.19904673 0.39615503 0.38875157 -0.19654565 -0.17157522 -0.0439123 -0.1063693 0.39521274
-0.4569955 -0.36721686 0.26831722 -0.42060533 -0.081629254 -0.21941732 0.022962606 -0.078193575
0.039327286 -0.36052868 0.43057713 0.13114244 0.31383616 0.019742247 -0.13838495 -0.047104083
0.36836907 0.32342827 -0.00055817986 -0.45323375 -0.0114363525 0.2801701 0.20990063 0.4919966
-0.35040957 0.37123558 -0.085728414 0.16107155 0.12629354 0.2071667 0.10929776 0.30258918
-0.103426784 0.09782289 0.20258933 0.27822667 -0.15635815 -0.1891371 -0.3910015 0.028559662
0.38470763 0.1845254 0.17148371 -0.26698393 0.35047117 0.22406083 0.26281664 -0.26158714
-0.067651354 -0.14189754 0.35283524 0.54085314 0.1167961 0.37286502 -0.21644731 -0.12957183
-0.19973034 0.11267217 0.04657996 0.49783733 -0.40534434 0.26124638 -0.41447392 -0.34021366
-0.11973705 0.5981878 -0.10971758 -0.39971927 -0.42292863 0.18008685 -0.024831088 0.47953892
-0.4610597 0.029880952 -0.37820685 -0.32985312 0.16972773 -0.010484422 0.15530281 -0.432613
-0.061488632 -0.25570565 -0.24875179 -0.061657507 0.39056516 0.39149946 0.072435334 -0.48345533
00000000: 9802 52be 2883 413e 5291 eebd 1491 04bf
00000010: 3140 5d3e ab74 913e 3a84 683c 9a1b ee3e
00000020: a424 41be 46ad 1f3d 4fdb 8f3c c2c5 253e
00000030: 0f43 4f3e 7f91 5d3d c5eb 9cbe 4a17 aabc
00000040: dfb0 ee3d c732 3b3e 8cd5 fb3e d29c 60be
00000050: 8fc8 e03d 7a00 a23e a0e9 2cbe 2322 0abe
00000060: 8722 143f f920 8ebd 23dc 47be 0643 82bd
00000070: cd51 3abe 9c8b e7be 4fa7 fcbd ffdc 213e
00000080: f09a a73c 1166 8a3e 9774 f7be 1e3d 123d
00000090: 6a1a 0f3f 92bc 003f bd71 afbe 5bac b3bc
000000a0: 8ba7 873e 638a 91be 76c5 fd3d 4279 633e
000000b0: d1da 3ebe 7809 89bd 323c 1dbe bb5b a8be
000000c0: e8d2 4b3e d5d4 ca3e 720a c73e 4343 49be
000000d0: 6ab1 2fbe 62dd 33bd 26d8 d9bd 5359 ca3e
000000e0: 50fb e9be d903 bcbe e060 893e 9559 d7be
000000f0: 3d2d a7bd efae 60be 131c bc3c f423 a0bd
00000100: a615 213d 3797 b8be 9b74 dc3e 344a 063e
00000110: 22af a03e 7eba a13c c9b4 0dbe 36f0 40bd
00000120: df9a bc3e 6498 a53e d152 12ba 410e e8be
00000130: 8a5f 3bbc 7572 8f3e 31f0 563e fae6 fb3e
00000140: e268 b3be 9712 be3e 6192 afbd f1ef 243e
00000150: 1853 013e 8223 543e 81d7 df3d f8ec 9a3e
00000160: 6cd1 d3bd 5e57 c83d 9473 4f3e ba73 8e3e
00000170: 5a1c 20be 28ad 41be 5931 c8be f4f5 e93c
00000180: 66f8 c43e 3af4 3c3e 6d99 2f3e 1eb2 88be
00000190: f570 b33e 3470 653e e78f 863e c0ee 85be
000001a0: cb8c 8abd 974d 11be d2a6 b43e 5a75 0a3f
000001b0: cb32 ef3d 2ae8 be3e 5da4 5dbe 7aae 04be
000001c0: 1c86 4cbe abc0 e63d a1ca 3e3d 89e4 fe3e
000001d0: 4b89 cfbe 16c2 853e ed35 d4be 7c30 aebe
000001e0: b338 f5bd d622 193f 9cb3 e0bd 01a8 ccbe
000001f0: 1a8a d8be b068 383e 916a cbbc 2086 f53e
00000200: 0410 ecbe e6c8 f43c 54a4 c1be 82e2 a8be
00000210: 1bcd 2d3e dac6 2bbc b307 1f3e 737f ddbe
00000220: 81db 7bbd daeb 82be cab8 7ebe 958c 7cbd
00000230: 28f8 c73e 9e72 c83e fa58 943d 7587 f7be

bias_ih_l1 f4 [24]
0.1473211 0.5826056 0.32871923 0.11073722 0.3473493 -0.13640836 0.3050034 0.28065604
0.0777755 0.3669309 0.42281628 0.5722579 0.3428374 0.35534596 -0.2583929 0.05018683
-0.16944858 0.22695547 0.30993402 0.22362313 0.14867757 -0.29566208 -0.10724265 0.21629693
00000000: 58db 163e a425 153f e34d a83e 32ca e23d
00000010: c4d7 b13e a2ae 0bbe 6829 9c3e 26b2 8f3e
00000020: c348 9f3d 5ede bb3e 607b d83e 7e7f 123f
00000030: 6288 af3e e8ef b53e 134c 84be b590 4d3d
00000040: ee83 2dbe 0467 683e acaf 9e3e 76fd 643e
00000050: ef3e 183e 0561 97be 09a2 dbbd f17c 5d3e

bias_hh_l1 f4 [24]
-0.02791051 0.22023171 0.264497 0.0940932 0.4136007 0.015508318 -0.22692786 0.05411475
0.52062184 0.12574317 0.37566936 0.028799172 -0.023085373 0.2593233 0.03376885 -0.21491623
0.04324369 -0.4484548 0.32422346 0.008121916 -0.11526889 0.114097565 -0.14717558 0.29463908
00000000: 95a4 e4bc 6c84 613e 276c 873e f0b3 c03d
00000010: 79c3 d33e 9a16 7e3c c75f 68be 6ea7 5d3d
00000020: 7947 053f d1c2 003e bc57 c03e 3eec eb3c
00000030: 891d bdbc 06c6 843e 3551 0a3d 0013 5cbe
00000040: 4c20 313d de9b e5be 9e00 a63e c911 053c
00000050: 1912 ecbd fcab e93d 32b5 16be efda 963e

weight_ih_l2 f4 [24, 6]
0.2087527 0.043964177 0.32856047 0.20860605 -0.08889563 0.0037515322 0.365633 0.26372194
-0.24611105 -0.6152138 -0.42282405 -0.37978154 0.042408943 0.21346615 0.15652144 0.26375273
-0.29659668 -0.55834126 -0.023018546 0.57527995 -0.25568658 -0.057257295 -0.4528687 -0.3322677
-0.18353602 0.5809182 0.20902605 0.5549678 0.8298615 0.6432778 -0.044812102 -0.030508056
0.3663693 -0.2886126 -0.37710544 0.11827578 0.44060522 0.4192369 -0.3404456 -0.07770804
0.10338214 -0.33987948 0.06977347 -0.105642624 -0.3511908 -0.32839516 -0.36598715 -0.20055543
-0.027732676 0.18461134 0.19681036 -0.33039305 0.12859169 -0.14919668 0.6509221 0.5664094
-0.24898902 0.20795353 -0.19767207 0.12901731 -0.3159089 0.023845086 0.2674985 0.20334516
0.17510161 -0.29230472 0.28936902 0.0041487273 0.1681296 0.27839392 -0.3816949 -0.36468425
-0.027535418 0.12895346 0.26119345 0.4916081 0.17969605 0.06438439 -0.23936293 0.022256488
0.5347176 -0.24925524 0.5783437 0.08568742 -0.2976161 0.059808593 0.58498085 0.08162517
0.122013 0.50120807 -0.34181863 0.14462954 0.48603925 0.33208796 -0.19539681 -0.48933363
0.40612465 0.35600936 -0.2107142 -0.022129742 0.5384773 0.09721064 0.08053072 -0.11049324
0.4928452 0.08436376 0.57255983 -0.113823585 0.27014336 0.6942345 -0.27696514 0.14384432
-0.4672088 -0.8163603 0.47112525 0.66078687 -0.00840503 0.04171137 -0.50017715 -0.57707125
0.16871326 0.78872657 -0.12094374 -0.31626862 -0.7740383 -0.65502954 0.07054279 0.2707223
-0.5359761 0.21528941 -0.18886375 -0.6443185 -0.26053125 0.25928527 0.44818586 0.6287511
0.59768665 -0.31465748 0.37460446 0.42720622 -0.1308469 -0.42907125 -0.52011454 -0.05165384
00000000: 45c3 553e c813 343d 1439 a83e d39c 553e
00000010: e90e b6bd 44dc 753b 4034 bb3e 9006 873e
00000020: 8904 7cbe a77e 1dbf 657c d8be ba72 c2be
00000030: 00b5 2d3d df96 5a3e 2847 203e 990a 873e
00000040: 85db 97be 74ef 0ebf 6491 bcbc 8c45 133f
00000050: 5ae9 82be a086 6abd 68de e7be fe1e aabe
00000060: def0 3bbe 0eb7 143f ed0a 563e 5f12 0e3f
00000070: ce71 543f dbad 243f e58c 37bd 08ec f9bc
00000080: c294 bb3e 08c5 93be f713 c1be 923a f23d
00000090: 0297 e13e 38a6 d63e e34e aebe 6525 9fbd
000000a0: 04ba d33d af04 aebe 65e5 8e3d 295b d8bd
000000b0: 48cf b3be 6923 a8be ab62 bbbe 675e 4dbe
000000c0: a32f e3bc c10a 3d3e a888 493e 4729 a9be
000000d0: 8aad 033e 04c7 18be d5a2 263f 3500 113f
000000e0: faf6 7ebe c5f1 543e 8c6a 4abe 1d1d 043e
000000f0: d0be a1be c556 c33c 90f5 883e b739 503e
00000100: d64d 333e f7a8 95be 2d28 943e 0cf2 873b
00000110: 2a2a 2c3e a689 8e3e 846d c3be e5b7 babe
00000120: f591 e1bc 600c 043e 26bb 853e 0fb4 fb3e
00000130: 3e02 383e f7db 833d 8e1b 75be 3d53 b63c
00000140: 41e3 083f c43c 7fbe 550e 143f e37c af3d
00000150: 2361 98be dbf9 743d 4ec1 153f 192b a73d
00000160: f4e1 f93d 2c4f 003f da02 afbe c419 143e
00000170: 23da f83e 6f07 aa3e 1a16 48be f089 fabe
00000180: 92ef cf3e dc46 b63e 77c5 57be 6f49 b5bc
00000190: a6d9 093f 5f16 c73d 4aed a43d 484a e2bd
000001a0: 3556 fc3e e8c6 ac3d 4893 123f 571c e9bd
000001b0: 3b50 8a3e 5ab9 313f 60ce 8dbe ed4b 133e
000001c0: fe35 efbe fdfc 50bf 5437 f13e 5429 293f
000001d0: 40b5 09bc 8bd9 2a3d 9c0b 00bf f1ba 13bf
000001e0: 2bc3 2c3e fce9 493f 5ab1 f7bd f6ed a1be
000001f0: 6027 46bf 04b0 27bf bd78 903d 1d9c 8a3e
00000200: bb35 09bf d474 5c3e 8065 41be 0ff2 24bf
00000210: 5a64 85be 0ac1 843e 9e78 e53e d5f5 203f
00000220: fe01 193f c91a a1be 28cc bf3e c6ba da3e
00000230: bbfc 05be 3aaf dbbe 3a26 05bf fa92 53bd

weight_hh_l2 f4 [24, 6]
0.05889906 0.09800014 0.07629359 -0.12316968 0.3928647 -0.16075294 0.36005178 -0.2531975
-0.100587465 0.17610016 0.53102046 0.3582169 -0.16231312 0.12961178 -0.28171045 0.111032285
0.23555286 -0.29506287 -0.14120772 0.20391132 0.080868855 0.29985034 -0.0027087748 0.4386873
0.37028572 0.16018878 0.08516426 -0.07911803 0.27769682 0.011061404 0.31185257 -0.33115426
0.18641697 0.2676055 0.085479006 -0.099429674 0.4591598 -0.08612435 0.30374286 0.2748379
0.5592589 0.056346033 0.2449484 -0.2606429 -0.13368307 0.20304583 0.30606934 -0.29492298
0.35904118 0.15333651 0.2906199 0.4486691 0.3055194 -0.39620283 0.057813317 -0.57489026
0.3210757 -0.2080885 -0.059310403 0.25458467 0.43687722 0.16218682 0.34520048 -0.19938664
-0.05788635 0.40433672 -0.08037692 -0.25724545 -0.0977072 0.011158804 0.21140023 -0.09639234
0.11333595 -0.3063826 0.04329728 0.56588864 -0.12059269 0.5528312 0.10817989 -0.013541555
-0.06073947 -0.20968175 0.02490102 0.22821705 0.17434335 0.4619459 -0.266625 -0.27082974
-0.16199423 0.30321127 -0.1640351 -0.14867523 0.13893332 0.47345105 -0.10210938 -0.21944168
0.04228971 0.38271374 0.14182954 0.13089305 0.42931056 -0.22110833 0.19217795 0.27160954
0.354726 0.101106 0.2332188 -0.079054944 -0.07276222 -0.15129651 -0.14734583 0.4904541
0.33277893 0.014392855 0.31386957 -0.44240966 0.09319755 0.6323579 0.07357183 -0.24600938
0.021027854 -0.03384996 0.07294541 0.36223903 0.19287173 0.2749054 0.49858043 0.13606581
0.23787345 0.0019115503 0.9631909 0.20163767 0.21336156 0.13625258 0.70168686 0.33610404
0.18220513 0.16309303 0.081232496 0.064839646 -0.09509481 0.28820497 0.5291737 0.21088041
00000000: 2440 713d 4cb4 c83d d03f 9c3d 6340 fcbd
00000010: 9025 c93e 6b9c 24be b558 b83e 1aa3 81be
00000020: cd00 cebd 9a53 343e f5f0 073f 3568 b73e
00000030: 6935 26be f3b8 043e 5a3c 90be e564 e33d
00000040: c534 713e 7b12 97be c298 10be 21ce 503e
00000050: 929e a53d fc85 993e b385 31bb 9f9b e03e
00000060: 1796 bd3e 8708 243e 996a ae3d a208 a2bd
00000070: 472e 8e3e e43a 353c 24ab 9f3e 0d8d a9be
00000080: 17e4 3e3e 9703 893e 9e0f af3d c9a1 cbbd
00000090: fe16 eb3e f761 b0bd 2f84 9b3e 8eb7 8c3e
000000a0: 972b 0f3f 19cb 663d c1d3 7a3e fc72 85be
000000b0: 37e4 08be 3feb 4f3e 1fb5 9c3e 2500 97be
000000c0: 3fd4 b73e 3f04 1d3e 22cc 943e f5b7 e53e
000000d0: 0a6d 9c3e 19db cabe a8cd 6c3d 022c 13bf
000000e0: 0964 a43e 2715 55be 77ef 72bd ec58 823e
000000f0: 5fae df3e 4d14 263e 1ebe b03e 032c 4cbe
00000100: 3d1a 6dbd 3905 cf3e a89c a4bd adb5 83be
00000110: b61a c8bd 6bd3 363c 4d79 583e 5969 c5bd
00000120: ae1c e83d 2ede 9cbe 7d58 313d 14de 103f
00000130: 4df9 f6bd 5886 0d3f 6b8d dd3d 66dd 5dbc
00000140: f3c9 78bd d0b6 56be 39fd cb3c bbb1 693e
00000150: 1087 323e 2c84 ec3e 1283 88be 32aa 8abe
00000160: d1e1 25be 823e 9b3e d1f8 27be 523e 18be
00000170: 8944 0e3e 2d68 f23e b91e d1bd 52b5 60be
00000180: fa37 2d3d 0ef3 c33e c33b 113e d408 063e
00000190: 98ce db3e 396a 62be 4cca 443e 6810 8b3e
000001a0: a59e b53e aa10 cf3d e9d0 6e3e 8fe7 a1bd
000001b0: 5c04 95bd 79ed 1abe d3e1 16be cd1c fb3e
000001c0: 0062 aa3e 02d0 6b3c 83b3 a03e 8583 e2be
000001d0: 5bde be3d 35e2 213f d4ac 963d e2e9 7bbe
000001e0: 9b42 ac3c 41a6 0abd 6764 953d 6577 b93e
000001f0: 2b80 453e 67c0 8c3e ef45 ff3e d654 0b3e
00000200: 1995 733e fc8c fa3a ae93 763f 1b7a 4e3e
00000210: 747b 5a3e cc85 0b3e c0a1 333f d415 ac3e
00000220: fb93 3a3e dc01 273e 395d a63d a6ca 843d
00000230: 11c1 c2bd 9a8f 933e ed77 073f 09f1 573e

bias_ih_l2 f4 [24]
0.6215327 0.697181 0.38218656 0.26661608 0.40202102 -0.052556407 0.13328016 -0.12725894
0.30275393 0.37615243 -0.17533661 0.18218474 -0.26137012 -0.14786237 0.345223 0.45352212
-0.15122432 -0.111223236 0.45595154 0.4457699 0.5807168 0.39170906 -0.08623545 0.51888394
00000000: c41c 1f3f 747a 323f f5ad c33e e781 883e
00000010: b3d5 cd3e 6345 57bd 987a 083e 2b50 02be
00000020: 9002 9b3e 0d97 c03e 718b 33be a38e 3a3e
00000030: 4ed2 85be 3c69 17be 12c1 b03e 0d34 e83e
00000040: 8cda 1abe 02c9 e3bd 7b72 e93e f43b e43e
00000050: dba9 143f 178e c83e 369c b0bd 94d5 043f

bias_hh_l2 f4 [24]
0.25548536 0.021549212 -0.14837058 0.24889001 0.2824563 -0.1640892 0.67045134 -0.020628577
0.054139312 0.3873397 0.0777574 0.55869305 0.18479168 0.4655089 0.2217546 -0.2808963
0.2217441 0.34074876 0.6127107 0.4537038 0.41281807 0.45286593 0.4533732 0.5648301
00000000: face 823e f987 b03c 75ee 17be 06dd 7e3e
00000010: 1d9e 903e 0007 28be b3a2 2b3f 43fd a8bc
00000020: 2fc1 5d3d 6451 c63e 463f 9f3d 8206 0f3f
00000030: 083a 3d3e 2f57 ee3e a313 633e a4d1 8fbe
00000040: e310 633e 9f76 ae3e 9cda 1c3f dd4b e83e
00000050: e45c d33e 0bde e73e 8820 e83e b598 103f
