model.pkl (torch, 8719 bytes, 12 tensors)

weight_ih_l0 f4 [24, 6]
-0.076882504 -0.12713154 0.23131858 -0.4619185 0.14130944 0.33983213 -0.26409528 -0.03191206
0.11533388 0.24727763 -0.14429367 -0.14949523 0.053715084 0.22262803 0.08861078 -0.11322229
-0.3064664 0.6685154 0.123733915 0.1184068 0.35177818 0.2768237 0.28553978 -0.31623378
-0.24946691 -0.25439015 -0.00944967 -0.29243195 -0.011080951 -0.14101861 0.14126697 -0.027795535
0.49431866 0.1878265 -0.014677194 -0.20035918 -0.1354149 -0.31245202 -0.21164243 -0.14071336
0.6316382 -0.13677114 -0.04247305 0.12980182 0.24717654 -0.5381307 -0.027133271 -0.25682724
-0.09535753 0.14908303 -0.2691546 -0.21801782 -0.11799786 0.21552986 0.01523488 0.125426
0.10066734 -0.08520284 -0.24549188 -0.019519042 0.113423124 0.123484425 -0.6760994 -0.30409834
-0.2964903 0.10588889 -0.18634465 -0.501192 0.3064976 0.23647404 -0.10042398 -0.5698417
0.33689937 0.124773934 -0.023894146 0.3960141 -0.2170417 -0.327244 0.42120707 0.28621233
-0.35485378 -0.24432944 0.49214503 0.44504765 0.3514759 -0.10008491 -0.5291117 0.27338785
-0.035167564 -0.7278998 0.1713046 0.09376765 -0.2587947 0.2541566 0.048028145 -0.28249788
-0.06821926 0.39421806 -0.6512929 -0.13184644 -0.29746234 -0.36735785 -0.044141285 0.1243344
0.15750034 -0.21328075 -0.8116605 -0.024235798 0.15211968 0.31679496 0.16159701 -0.1695366
0.12895761 -0.37680665 -0.19735228 0.11083688 0.068730436 -0.10775207 -0.32778475 -0.5863567
-0.025710631 0.14201383 -0.09699328 0.110111676 0.23943076 0.28133345 0.5627625 0.05040345
0.027850894 0.04924107 -0.021628287 0.105251595 -0.39964965 0.038299356 0.09785947 0.22391759
-0.005607706 0.12972161 0.5259921 0.039750256 0.10297622 -0.029394707 -0.07419759 -0.6017946
00000000: 9374 9dbd c52e 02be c7de 6c3e 9580 ecbe
00000010: 6cb3 103e 7afe ad3e 7f37 87be 38b6 02bd
00000020: 2b34 ec3d 5936 7d3e b8c1 13be 4715 19be
00000030: 5904 5c3d 9af8 633e 9279 b53d 17e1 e7bd
00000040: 2ae9 9cbe d323 2b3f 3568 fd3d 447f f23d
00000050: 451c b43e d6bb 8d3e 4532 923e 65e9 a1be
00000060: 4174 7fbe 6d3f 82be cad2 1abc a4b9 95be
00000070: e18c 35bc 2f67 10be 4aa8 103e 76b3 e3bc
00000080: 5617 fd3e 9755 403e 9d78 70bc f52a 4dbe
00000090: 34aa 0abe b6f9 9fbe cbb8 58be 2a17 10be
000000a0: 0bb3 213f bc0d 0cbe 39f8 2dbd c5ea 043e
000000b0: d91b 7d3e efc2 09bf 9846 debc dc7e 83be
000000c0: cf4a c3bd 39a9 183e a2ce 89be 1040 5fbe
000000d0: dda8 f1bd dcb3 5c3e b89b 793c ac6f 003e
000000e0: ae2a ce3d d47e aebd 3962 7bbe 66e6 9fbc
000000f0: 624a e83d 67e5 fc3d da14 2dbf c7b2 9bbe
00000100: 94cd 97be 46dc d83d 22d1 3ebe 1e4e 00bf
00000110: 41ed 9c3e 4026 723e 16ab cdbd 25e1 11bf
00000120: 137e ac3e 7a89 ff3d a8bd c3bc 5cc2 ca3e
00000130: 2e40 5ebe 878c a7be 74a8 d73e 6c8a 923e
00000140: 65af b5be 7f31 7abe 6ffa fb3e 49dd e33e
00000150: a6f4 b33e 51f9 ccbd dd73 07bf 7ef9 8b3e
00000160: dd0b 10bd a457 3abf 796a 2f3e 4109 c03d
00000170: bd80 84be d020 823e 29b9 443d 90a3 90be
00000180: 8ab6 8bbd f3d6 c93e 22bb 26bf c102 07be
00000190: fc4c 98be 5416 bcbe 7ecd 34bd 09a3 fe3d
000001a0: c547 213e 4566 5abe fcc8 4fbf 278a c6bc
000001b0: 43c5 1b3e f332 a23e b079 253e 019b 2dbe
000001c0: 770d 043e cdec c0be b716 4abe 72fe e23d
000001d0: 8bc2 8c3d 1ead dcbd 67d3 a7be 791b 16bf
000001e0: 1a9f d2bc 136c 113e 6aa4 c6bd 3b82 e13d
000001f0: 562d 753e f00a 903e 3411 103f d973 4e3d
00000200: 8f27 e43c 01b1 493d ce2d b1bc 268e d73d
00000210: e19e ccbe c9df 1c3d 8c6a c83d a74a 653e
00000220: d9c0 b7bb bed5 043e 6ba7 063f 2ad1 223d
00000230: 32e5 d23d 2bcd f0bc e8f4 97bd 360f 1abf

weight_hh_l0 f4 [24, 6]
0.20442823 -0.047151975 0.38774619 0.013982387 -0.28358993 -0.21024956 0.015893957 -0.6241053
-0.15464574 0.15330182 -0.3374871 0.028907053 0.35521364 -0.06956181 -0.6498089 -0.5599492
-0.2263171 -0.25885355 -0.26674753 -0.20259762 0.10269373 0.009516737 0.33986303 -0.003875156
0.07323489 -0.1749276 0.20748809 0.09077415 0.26766986 -0.14961617 0.32817018 -0.17264608
0.08451605 0.33965796 -0.014917297 -0.1578674 0.23188767 -0.06450992 0.18340805 -0.13139336
0.09152311 0.16073233 -0.72072643 0.13060768 0.40440413 0.1296584 0.17974716 0.22730872
0.17182215 -0.010166125 -0.14022411 0.23813085 -0.31933117 -0.5544538 0.6838434 0.69263685
0.17205915 0.25425556 -0.3319558 0.42765096 0.6397053 -0.44809398 0.024433574 -0.19965646
0.16138022 -0.044692032 -0.330375 0.1404169 -0.47485155 0.06261939 -0.052844875 -0.045946427
0.14900589 0.6478358 -0.56675327 -0.18901671 -0.25236142 0.16653591 0.49804693 0.20506899
-0.11129589 -0.03643439 -0.030901603 -0.036156032 -0.07558222 -0.023972059 0.028341817 -0.14030981
0.04972975 -0.17898059 -0.29779163 -0.0017768082 0.060361132 -0.14120276 -0.16887887 0.32060602
0.014500908 -0.20442955 -0.22254972 -0.034370914 0.16052829 -0.38679716 0.035625514 0.082800224
-0.10285867 0.010925943 -0.2785015 0.03835526 -0.36940682 -0.34519804 0.31664157 -0.12326
0.026043056 0.12241143 0.5105754 -0.36113352 0.14209087 -0.07890156 0.37728196 -0.11784266
-0.2694115 -0.4688123 -0.008747885 -0.6098219 -0.22907716 0.28040776 -0.5562964 -0.63872296
-0.5687912 0.04665619 -0.18363076 0.4066547 0.13360225 0.2284363 -0.16399495 0.30056125
-0.1172657 -0.058667947 -0.4244806 -0.123936355 0.24055655 0.10122039 0.4152973 0.11285345
00000000: a255 513e 6e22 41bd ab86 c63e 6216 653c
00000010: b332 91be a94b 57be 0b34 823c 5dc5 1fbf
00000020: 745b 1ebe 27fb 1c3e 1ccb acbe 7cce ec3c
00000030: 90de b53e 6c76 8ebd e059 26bf d558 0fbf
00000040: abbf 67be 7488 84be 2293 88be c075 4fbe
00000050: 1751 d23d 17ec 1b3c 8702 ae3e 54f6 7dbb
00000060: 2dfc 953d 3920 33be c277 543e cce7 b93d
00000070: 060c 893e fb34 19be ec05 a83e 22ca 30be
00000080: c016 ad3d a6e7 ad3e ae67 74bc fea7 21be
00000090: f673 6d3e c71d 84bd 52cf 3b3e fb8b 06be
000000a0: 7870 bb3d 0497 243e 8781 38bf 05be 053e
000000b0: 0f0e cf3e 2cc5 043e a40f 383e 9ec3 683e
000000c0: 25f2 2f3e d28f 26bc e996 0fbe 93d8 733e
000000d0: 607f a3be aff0 0dbf 5c10 2f3f a650 313f
000000e0: 4630 303e c92d 823e 1cf6 a9be 11f5 da3e
000000f0: bac3 233f 936c e5be eb28 c83c be72 4cbe
00000100: db40 253e fe0e 37bd e926 a9be 73c9 0f3e
00000110: be1f f3be 983e 803d de73 58bd 5232 3cbd
00000120: 0095 183e 91d8 253f be16 11bf 998d 41be
00000130: 8435 81be 6488 2a3e 0200 ff3e 9bfd 513e
00000140: 19ef e3bd 3a3c 15bd 5c25 fdbc 5918 14bd
00000150: daca 9abd 0d61 c4bc 192d e83c 60ad 0fbe
00000160: 6cb1 4b3d b046 37be 2578 98be cae3 e8ba
00000170: 3c3d 773d 7597 10be 95ee 2cbe 7926 a43e
00000180: 3795 6d3c fb55 51be 13e4 63be 84c8 0cbd
00000190: 8761 243e 470a c6be 0fec 113d 2a93 a93d
000001a0: 91a7 d2bd ba02 333c c097 8ebe 681a 1d3d
000001b0: e422 bdbe ccbd b0be d81e a23e bd6f fcbd
000001c0: 3f58 d53c d8b2 fa3d 12b5 023f 7ee6 b8be
000001d0: 4580 113e 2497 a1bd 1a2b c13e 7e57 f1bd
000001e0: 4ef0 89be 2a08 f0be 4a53 0fbc 4a1d 1cbf
000001f0: 3493 6abe 9b91 8f3e 7169 0ebf 5983 23bf
00000200: 4d9c 11bf 901a 3f3d b409 3cbe 0b35 d03e
00000210: 07cf 083e 35eb 693e 4bee 27be 2ae3 993e
00000220: 0029 f0bd cd4d 70bd 8555 d9be 58d2 fdbd
00000230: 7554 763e a34c cf3d d9a1 d43e b61f e73d

bias_ih_l0 f4 [24]
-0.06528963 0.044534583 0.10650879 -0.06707431 0.062259432 0.09063242 -0.022674058 0.05174499
0.07266832 -0.054431234 0.06890552 0.06310904 -0.030318443 -0.029146176 -0.007877189 -0.021286562
0.035932906 -0.0150744 -0.047312494 0.049026776 0.099081576 -0.049740653 0.019332822 0.09379545
00000000: 92b6 85bd e569 363d 4821 da3d 415e 89bd
00000010: bf03 7f3d 7d9d b93d f2be b9bc 8ef2 533d
00000020: 21d3 943d 49f3 5ebd 561e 8d3d 503f 813d
00000030: 625e f8bc f6c3 eebc 530f 01bc 2861 aebc
00000040: 622e 133d 9efa 76bc bfca 41bd 4dd0 483d
00000050: 48eb ca3d dbbc 4bbd de5f 9e3c d417 c03d

bias_hh_l0 f4 [24]
-0.06528971 0.0445342 0.10650809 -0.067074485 0.06225964 0.09063286 -0.022673499 0.051744368
0.07266779 -0.054431327 0.0689056 0.06310883 -0.030318648 -0.029146025 -0.007877134 -0.021286547
0.035932817 -0.015074374 -0.047312427 0.04902678 0.09908137 -0.049740307 0.019333841 0.09379493
00000000: 9db6 85bd 7e69 363d ea20 da3d 595e 89bd
00000010: f703 7f3d b99d b93d c6bd b9bc e7f1 533d
00000020: dad2 943d 62f3 5ebd 611e 8d3d 343f 813d
00000030: d05e f8bc a5c3 eebc 180f 01bc 2061 aebc
00000040: 4a2e 133d 82fa 76bc adca 41bd 4ed0 483d
00000050: 2ceb ca3d 7ebc 4bbd 0162 9e3c 8e17 c03d

weight_ih_l1 f4 [24, 6]
-0.2358032 -0.41614977 0.12449897 0.0008040793 0.3547216 0.086517416 0.10818317 -0.2904154
-0.22212243 -0.001409357 0.22891706 0.256883 0.08382216 0.6397703 0.20882812 -0.45922294
-0.25925753 0.12028151 0.10463042 0.21597259 -0.26037022 -0.30966753 0.096210256 0.10739499
-0.32138416 0.32966903 0.4504694 -0.11961905 0.22260444 0.13379176 0.09663304 0.44132495
0.10090235 0.23827437 -0.04815828 0.09645714 0.20881079 -0.3746335 -0.2769199 -0.038523145
0.07862984 -0.2708739 -0.19205606 0.22275665 0.26171765 -0.23834151 -0.18128765 -0.5746458
0.1345547 -0.39651352 0.1304823 0.1826274 0.052247602 0.3036092 -0.11598185 -0.5507455
-0.06564694 -0.2602552 -0.45678496 0.39086047 0.6016033 -0.16861713 0.005371034 0.12415761
-0.24847929 -0.1856361 0.7458672 -0.10431985 0.226145 -0.31888604 -0.114867285 0.38942948
0.038591664 -0.19385564 -0.38109744 0.3263336 -0.24629992 0.19328481 0.23967674 -0.034215577
0.17802529 0.37356722 0.4476927 0.41211867 0.13437366 -0.106520966 -0.095555305 -0.2737625
0.14397557 -0.25598526 -0.1014988 0.0522684 -0.25988492 -0.34069175 0.35170135 -0.24986969
-0.06700158 -0.38474378 0.37239173 0.109342806 -0.019485526 -0.09729153 0.030338513 0.011754341
-0.12718374 -0.18025115 -0.2663197 -0.096385635 0.049755715 -0.22789669 0.032438863 0.050712716
0.09425817 -0.11245672 -0.6778159 -0.02634678 -0.24165656 -0.74999464 -0.10272183 0.013968036
-0.012792303 0.037156425 -0.28055766 0.12859875 0.102170564 -0.3090143 -0.17410167 0.05107963
0.19942398 0.2701653 -0.45714572 -0.4816007 -0.5087518 -0.06671923 -0.15917942 -0.03599123
0.5183139 -0.0051610176 0.07171111 0.23185119 -0.22868872 0.25709948 0.08969329 -0.21651578
00000000: 6576 71be 9511 d5be 51f9 fe3d d9c8 523a
00000010: 129e b53e 0b30 b13d 238f dd3d 54b1 94be
00000020: 1074 63be 2cba b8ba 3c69 6a3e 2b86 833e
00000030: f4aa ab3d fdc7 233f 0ad7 553e 451f ebbe
00000040: 67bd 84be 2756 f63d 7948 d63d eb27 5d3e
00000050: 3f4f 85be be8c 9ebe e209 c53d e8f1 db3d
00000060: 778c a4be 61ca a83e eda3 e63e d5fa f4bd
00000070: 6bf2 633e b500 093e 8be7 c53d 58f5 e13e
00000080: e4a5 ce3d 32fe 733e 9e41 45bd 528b c53d
00000090: 7fd2 553e f6cf bfbe 72c8 8dbe 72ca 1dbd
000000a0: ae08 a13d fcaf 8abe 58aa 44be 521a 643e
000000b0: dbff 853e cc0f 74be 78a3 39be fd1b 13bf
000000c0: b5c8 093e d203 cbbe 279d 053e ad02 3b3e
000000d0: 9501 563d aa72 9b3e e487 edbd a8fd 0cbf
000000e0: e771 86bd 2b40 85be b8df e9be dd1e c83e
000000f0: ad02 1a3f f8a9 2cbe 80ff af3b 5846 fe3d
00000100: 5b71 7ebe 6417 3ebe 27f1 3e3f a5a5 d5bd
00000110: 8e92 673e 0845 a3be 8a3f ebbd 4d63 c73e
00000120: 4b12 1e3d 1882 46be 341f c3be 3315 a73e
00000130: 0c36 7cbe 74ec 453e d26d 753e a225 0cbd
00000140: 434c 363e 3444 bf3e fa37 e53e 3801 d33e
00000150: 4099 093e aa27 dabd 80b2 c3bd 992a 8cbe
00000160: 556e 133e 8010 83be 9ade cfbd 6417 563d
00000170: a30f 85be 266f aebe 3312 b43e d7dd 7fbe
00000180: 2038 89bd 23fd c4be 21aa be3e 1fef df3d
00000190: 1ca0 9fbc c840 c7bd 7988 f83c 4895 403c
000001a0: 743c 02be c293 38be 0e5b 88be d565 c5bd
000001b0: a6cc 4b3d c05d 69be 9dde 043d 23b8 4f3d
000001c0: 6d0a c13d b54f e6bd 5885 2dbf 34d5 d7bc
000001d0: d174 77be a6ff 3fbf d35f d2bd 30da 643c
000001e0: cf96 51bc 5631 183d 41a5 8fbe 64af 033e
000001f0: cd3e d13d 1f37 9ebe b547 32be e038 513d
00000200: cd35 4c3e 1b53 8a3e 010f eabe 5e94 f6be
00000210: 8f3d 02bf 17a4 88bd eeff 22be 8a6b 13bd
00000220: 38b0 043f c11d a9bb 46dd 923d 666a 6d3e
00000230: 602d 6abe 8ba2 833e 1eb1 b73d 50b6 5dbe

weight_hh_l1 f4 [24, 6]
0.55189323 0.3506331 -0.16332573 0.016649926 0.10389955 -0.47531968 -0.34127015 -0.03298477
0.0050651985 -0.083722435 0.010623038 0.006310449 0.07959177 0.3836606 -0.13100275 -0.21735762
0.19545145 -0.16782242 -0.06097048 -0.38084453 0.10910737 -0.03197305 0.20162854 0.00062315434
0.07011327 0.13897024 -0.024358654 0.030753076 0.033506453 -0.16336574 0.22873122 -0.10483612
-0.10007458 0.1253481 -0.29231057 0.3447437 0.22519298 -0.35867545 0.46301004 0.19582923
0.38315797 0.28617802 0.37348795 -0.39943635 0.3540523 0.17623912 -0.1461086 -0.2617846
-0.05916487 0.30764502 -0.008734516 0.19749844 -0.2955207 -0.3032205 -0.39752114 0.08711037
-0.23177758 0.10644873 0.037800223 -0.45708415 -0.12027909 0.22642554 -0.08870633 -0.038890265
0.2040164 -0.07270703 0.08720717 -0.33644515 -0.51856273 -0.15953138 0.06939213 -0.41629392
0.25381956 -0.033186886 0.17364335 -0.030678462 -0.6041019 -0.05379286 0.27955848 -0.11651608
-0.22015595 -0.310445 0.604756 0.06677722 0.08861144 0.059359085 0.45933115 0.050131716
0.04446782 0.07121036 -0.31544974 -0.44515955 0.13200854 -0.009161629 0.07736213 0.078620635
0.002555921 0.46073508 -0.13297297 -0.19778901 -0.4805045 -0.2041671 -0.090111144 -0.13874507
-0.52048934 -0.18202604 -0.26084164 -0.2977474 0.10364666 0.12133891 0.10273422 0.065449275
0.079527095 0.4623269 -0.5943948 0.19156812 -0.041170932 0.19033608 0.047910154 -0.33874556
0.31790912 -0.36943233 0.08248627 0.06474526 -0.30972847 -0.06531256 -0.22020863 -0.27237216
0.18299234 -0.30837935 -0.06524695 0.35550812 -0.40440124 -0.006069461 -0.19268353 -0.38405323
0.076939546 -0.38336846 -0.3128033 -0.09306953 0.007527717 -0.22282067 0.086708196 0.12896681
00000000: e048 0d3f 2f86 b33e dc3e 27be 6d65 883c
00000010: 4ac9 d43d 1a5d f3be f6ba aebe 0a1b 07bd
00000020: f7f9 a53b ab76 abbd 400c 2e3c e2c7 ce3b
00000030: 0301 a33d 2a6f c43e 9625 06be ff92 5ebe
00000040: 6d24 483e a4d9 2bbe 2fbc 79bd 0efe c2be
00000050: af73 df3d 2cf6 02bd b677 4e3e 2e5b 233a
00000060: 8c97 8f3d 374e 0e3e cd8b c7bc e0ed fb3c
00000070: 103e 093d 5949 27be 8438 6a3e 52b4 d6bd
00000080: e7f3 ccbd 415b 003e bba9 95be 3f82 b03e
00000090: fd98 663e 4fa4 b7be a70f ed3e 7587 483e
000000a0: 482d c43e ed85 923e d039 bf3e ec82 ccbe
000000b0: 5846 b53e 0778 343e 7e9d 15be a208 86be
000000c0: dd56 72bd a683 9d3e 371b 0fbc 083d 4a3e
000000d0: 7d4e 97be b83f 9bbe e487 cbbe ec66 b23d
000000e0: 1a57 6dbe cb01 da3d 68d4 1a3d ef06 eabe
000000f0: e254 f6bd 19dc 673e aaab b5bd 664b 1fbd
00000100: ade9 503e 6ce7 94bd ac99 b23d 8a42 acbe
00000110: 87c0 04bf 325c 23be 761d 8e3d 7a24 d5be
00000120: a3f4 813e f9ee 07bd 90cf 313e 6651 fbbc
00000130: 6ca6 1abf e755 5cbd 4a22 8f3e fc9f eebd
00000140: 9070 61be a6f2 9ebe 4ad1 1a3f 7fc2 883d
00000150: ea79 b53d 8322 733d 742d eb3e ea56 4d3d
00000160: e423 363d bdd6 913d a182 a1be f4eb e3be
00000170: 3f2d 073e a81a 16bc 0970 9e3d db03 a13d
00000180: 3d81 273b 78e5 eb3e 112a 08be 3489 4abe
00000190: b004 f6be 2e11 51be 318c b8bd 3013 0ebe
000001a0: ca3e 05bf 0965 3abe 098d 85be 5972 98be
000001b0: b344 d43d 8980 f83d 5266 d23d 450a 863d
000001c0: 1adf a23d 1db6 ec3e 422a 18bf 6f2a 443e
000001d0: daa2 28bd 76e7 423e 703d 443d 0f70 adbe
000001e0: fcc4 a23e 3c26 bdbe 90ee a83d 2a99 843d
000001f0: bb94 9ebe 97c2 85bd 5f7e 61be 5d74 8bbe
00000200: 5862 3b3e e6e3 9dbe 31a0 85bd 2905 b63e
00000210: ae0d cfbe 54e2 c6bb d54e 45be a0a2 c4be
00000220: 7b92 9d3d df48 c4be c127 a0be 3d9b bebd
00000230: 11ab f63b 1a2b 64be 1194 b13d e00f 043e

bias_ih_l1 f4 [24]
0.08339985 0.116470434 0.010292867 -0.018749679 0.08135271 -0.021984583 0.08875548 0.114419065
0.013925664 -0.024254007 0.079064324 -0.0029159528 -0.0076081837 -0.0054601463 0.042427123 0.037908517
0.020114452 -0.03726787 0.09407185 0.10471915 0.010889468 -0.035412658 0.08215109 -0.02018192
00000000: 8acd aa3d 0d88 ee3d 6aa3 283c ed98 99bc
00000010: 409c a63d 0319 b4bc 6fc5 b53d 8b54 ea3d
00000020: 7828 643c 57b0 c6bc 7aec a13d 9219 3fbb
00000030: 124e f9bb 07eb b2bb 10c8 2d3d f645 1b3d
00000040: 10c7 a43c 32a6 18bd bea8 c03d fe76 d63d
00000050: bd69 323c dd0c 11bd d53e a83d 8e54 a5bc

bias_hh_l1 f4 [24]
0.083400175 0.116470315 0.010292721 -0.018749626 0.08135322 -0.021984486 0.08875534 0.11441945
0.013925949 -0.024254339 0.07906401 -0.0029160134 -0.007608186 -0.0054604094 0.042426847 0.037908416
0.020114368 -0.037267935 0.09407232 0.104718626 0.010889435 -0.03541277 0.082151346 -0.020182036
00000000: b6cd aa3d fd87 ee3d cda2 283c d198 99bc
00000010: 849c a63d cf18 b4bc 5cc5 b53d bf54 ea3d
00000020: aa29 643c 09b1 c6bc 50ec a13d 961a 3fbb
00000030: 174e f9bb 3ced b2bb c6c7 2d3d db45 1b3d
00000040: e3c6 a43c 43a6 18bd fda8 c03d b876 d63d
00000050: 9a69 323c fb0c 11bd f73e a83d cc54 a5bc

weight_ih_l2 f4 [24, 6]
-0.124375574 0.06254757 -0.07999645 0.046107247 -0.24196643 -0.31409398 -0.006561821 -0.14051634
-0.16290662 0.12226681 -0.1427962 0.23013726 0.18903717 -0.38971213 -0.037795585 -0.327655
-0.25316885 0.036407225 -0.34511772 0.6574944 -0.27716842 -0.09842638 0.12718679 0.3558355
0.07546178 0.45413947 -0.22381637 0.22158471 0.31230974 -0.21069914 -0.13391608 -0.1610406
0.29296932 0.29518694 0.16897416 -0.31625155 -0.34191546 0.23998937 0.13923073 -0.077049956
-0.8296411 -0.31747153 0.50389886 0.20236866 -0.111118875 0.27318522 0.034232516 -0.3520874
0.22362266 0.21028973 -0.52746713 -0.061840076 -0.35212287 -0.035416186 0.01697404 0.1986013
0.09687879 -0.28362468 -0.21622117 0.6137563 -0.1751828 -0.38402715 0.008990311 0.101556644
-0.041600298 0.13291031 0.047388457 -0.60281634 0.077992246 0.39080754 0.5473189 -0.030990852
0.03302603 -0.24864765 0.080461115 -0.14906266 0.10589172 -0.064214684 -0.06144888 0.1328058
0.15343198 -0.20815542 -0.11590799 0.12538157 0.2022705 0.03226993 -0.072164804 -0.3683226
-0.23863971 0.57994294 0.1540887 0.044562537 -0.04866161 -0.15172543 0.03343649 0.0045039635
-0.013829818 -0.2450546 0.114966996 0.12535882 0.0625883 0.1838218 0.7281497 -0.2738039
0.051268276 -0.08426805 -0.54230976 0.2154777 -0.24686792 -0.125559 -0.25462383 0.16909543
-0.20388979 -0.22655919 -0.03219555 -0.045130085 0.2102633 -0.10377279 -0.2706122 0.31653336
-0.06635363 -0.17859754 -0.39503774 -0.24602701 -0.12704423 -0.21442863 -0.49749163 0.029412432
-0.50316554 -0.20637125 0.58904034 -0.10365457 0.11007395 0.12627304 0.4354518 0.47050038
0.05636468 -0.18043844 -0.06406068 0.16247997 0.070027895 0.056117877 0.007700535 -0.095612645
00000000: 9fb8 febd f118 803d 2ed5 a3bd f4da 3c3d
00000010: 0cc6 77be edd0 a0be 8b04 d7bb 84e3 0fbe
00000020: fed0 26be 0567 fa3d 2b39 12be 1aa9 6b3e
00000030: f692 413e 5988 c7be 8bcf 1abd 65c2 a7be
00000040: 599f 81be be1f 153d 45b3 b0be 8e51 283f
00000050: 05e9 8dbe c593 c9bd 413d 023e 1230 b63e
00000060: b58b 9a3d f884 e83e 1e30 65be 1ae7 623e
00000070: 10e7 9f3e 84c1 57be 4c21 09be d4e7 24be
00000080: 1300 963e be22 973e 9007 2d3e b9eb a1be
00000090: 8b0f afbe c6bf 753e 8092 0e3e 5ecc 9dbd
000000a0: 5c63 54bf a18b a2be 84ff 003f bb39 4f3e
000000b0: 4b92 e3bd efde 8b3e 6537 0c3d cd44 b4be
000000c0: 57fd 643e 3156 573e 1608 07bf 054c 7dbd
000000d0: 7349 b4be 9010 11bd 240d 8b3c 245e 4b3e
000000e0: 6368 c63d 4137 91be 1569 5dbe 221f 1d3f
000000f0: 1f63 33be 359f c4be 194c 133c eefc cf3d
00000100: 1365 2abd a419 083e 661a 423d 2c52 1abf
00000110: 66ba 9f3d ed17 c83e 171d 0c3f 87e0 fdbc
00000120: 4d46 073d 7d9d 7ebe ccc8 a43d e2a3 18be
00000130: c2dd d83d fd82 83bd d2b1 7bbd 3efe 073e
00000140: 461d 1d3e b226 55be 2b61 edbd 0764 003e
00000150: ff1f 4f3e 792d 043d 24cb 93bd c894 bcbe
00000160: f85d 74be 2477 143f 6ec9 1d3e 3587 363d
00000170: 6551 47bd e95d 1bbe b3f4 083d fc95 933b
00000180: 7696 62bc 98ef 7abe d173 eb3d 105e 003e
00000190: 4b2e 803d c83b 3c3e 0568 3a3f 0630 8cbe
000001a0: affe 513d ba94 acbd d0d4 0abf 30a6 5c3e
000001b0: f2ca 7cbe 8a92 00be 0e5e 82be 5a27 2d3e
000001c0: 7cc8 50be 22ff 67be 7bdf 03bd 53da 38bd
000001d0: 434f 573e d486 d4bd af8d 8abe a910 a23e
000001e0: 69e4 87bd 46e2 36be 6342 cabe 81ee 7bbe
000001f0: e217 02be 2e93 5bbe 39b7 febe 57f2 f03c
00000200: 75cf 00bf fc52 53be 59cb 163f d948 d4bd
00000210: 736e e13d b84d 013e 8af3 de3e 6de5 f03e
00000220: a7de 663d dbc4 38be 3f32 83bd 2661 263e
00000230: c96a 8f3d dcdb 653d c554 fc3b 90d0 c3bd

weight_hh_l2 f4 [24, 6]
-0.16769779 -0.08728508 -0.4379297 0.2521345 0.04641515 -0.123167604 0.10109546 -0.2365996
0.069927394 -0.08638719 -0.01011336 -0.19994058 -0.47381902 -0.14350364 0.28056633 0.043140758
0.23384234 0.4344675 0.07008383 -0.17826626 0.24549839 -0.19144797 -0.4084419 -0.33884305
0.2849177 0.080529936 0.1639542 0.37654805 0.20698968 0.102560386 0.35691965 -0.23856416
0.18140945 -0.22212054 -0.31895527 -0.37772962 -0.017465085 -0.12778658 0.18425776 -0.41792178
-0.3210096 -0.094192356 -0.09517635 -0.32477805 0.1842874 -0.72458965 0.4509834 0.25853223
0.42146224 -0.14924787 0.12745719 -0.010521275 -0.26596 0.1838647 -0.50549084 0.12504338
-0.12581517 0.27014846 -0.1255173 -0.31512487 -0.2244208 0.2988019 0.002874489 -0.11047542
0.3991684 -0.089899994 -0.0049324865 -0.1993053 0.106355466 -0.1310734 0.43312353 0.25722796
-0.34984112 -0.21712437 -0.32286096 -0.02867575 -0.33391595 -0.057151653 -0.24327262 -0.1422691
0.10994702 -0.72890246 -0.20196171 -0.052135296 0.03808116 -0.025892377 0.013908073 0.068813734
0.18811418 -0.35571584 -0.0700808 0.0034558512 0.19562615 -0.17441095 -0.14065175 -0.24340832
0.26805755 -0.1665009 -0.20669107 -0.24671121 0.57968247 -0.033594932 -0.33109656 -0.28414765
-0.22867225 0.054870095 -0.5774146 0.20283794 0.027083347 -0.040405635 -0.061754107 -0.075875655
-0.43117148 0.65012676 0.136584 0.20894258 -0.08008562 -0.32291082 -0.114241965 0.42068806
0.33913466 0.0525504 0.3507606 0.11995957 -0.21233487 0.306422 -0.5325832 0.2246205
-0.13946259 -0.09278653 -0.4602495 0.07405017 0.18145299 -0.15500404 -0.21573454 -0.13250257
0.19159284 -0.3151302 0.12959988 -0.21552184 -0.16127862 -0.09082184 -0.047265776 0.19004117
00000000: f8b8 2bbe 85c2 b2bd 5238 e0be c617 813e
00000010: d01d 3e3d 4c3f fcbd 230b cf3d 2a47 72be
00000020: 1836 8f3d c4eb b0bd 82b2 25bc 39bd 4cbe
00000030: 6898 f2be 9ef2 12be 64a6 8f3e 5db4 303d
00000040: 5e74 6f3e 8672 de3e 1c88 8f3d 6e8b 36be
00000050: ee63 7b3e f00a 44be 4c1f d1be d67c adbe
00000060: bce0 913e e1ec a43d 9ce3 273e e8ca c03e
00000070: 1af5 533e 2e0b d23d 2cbe b63e 2a4a 74be
00000080: 66c3 393e 9173 63be 1b4e a3be c765 c1be
00000090: f012 8fbc 7cda 02be 11ae 3c3e d8f9 d5be
000000a0: 5f5b a4be ece7 c0bd d1eb c2bd 4f49 a6be
000000b0: d6b5 3c3e b57e 39bf 4ce7 e63e 565e 843e
000000c0: e6c9 d73e 6fd4 18be 2384 023e 6d61 2cbc
000000d0: e92b 88be 0747 3c3e d967 01bf 5f0b 003e
000000e0: b1d5 00be e650 8a3e 9b87 00be 0c58 a1be
000000f0: 91ce 65be 90fc 983e ec61 3c3b f040 e2bd
00000100: cd5f cc3e 7d1d b8bd b2a0 a1bb b016 4cbe
00000110: e5d0 d93d 1b38 06be 5ec2 dd3e 62b3 833e
00000120: 601e b3be da55 5ebe 084e a5be 68e9 eabc
00000130: 08f7 aabe da17 6abd 751c 79be feae 11be
00000140: e72b e13d 5a99 3abf 0dcf 4ebe d28b 55bd
00000150: fefa 1b3d 401c d4bc b0de 633c 37ee 8c3d
00000160: 01a1 403e 6320 b6be 8686 8fbd 907b 623b
00000170: 3952 483e c998 32be 0307 10be 0840 79be
00000180: d73e 893e 367f 2abe d3a6 53be dda1 7cbe
00000190: 1266 143f d79a 09bd 7d85 a9be cd7b 91be
000001a0: 0f29 6abe 77bf 603d 71d1 13bf c0b4 4f3e
000001b0: e5dd dd3c 6180 25bd e0f1 7cbd b264 9bbd
000001c0: 82c2 dcbe b56e 263f addc 0b3e 0bf5 553e
000001d0: ee03 a4bd 9154 a5be b1f7 e9bd 6d64 d73e
000001e0: 0fa3 ad3e 173f 573d e596 b33e 5dad f53d
000001f0: 506e 59be 58e3 9c3e 5f57 08bf eb02 663e
00000200: 48cf 0ebe dd06 bebd d3a5 ebbe 9ea7 973d
00000210: d0ce 393e 61b9 1ebe 84e9 5cbe c1ae 07be
00000220: ea30 443e bf58 a1be d5b5 043e c2b1 5cbe
00000230: 3926 25be cd00 babd c299 41bd 279a 423e

bias_ih_l2 f4 [24]
-0.019786976 -0.013105137 0.0015890164 0.029040044 0.13541032 0.07826202 -0.017331041 -0.012115335
0.0025667506 0.03040464 0.110831626 0.071979694 0.012415027 0.008948342 -0.035860073 0.031594
-0.016501132 -0.0067155994 -0.019754037 -0.014010288 -0.0008556752 0.029384507 0.13369548 0.082352966
00000000: 4c18 a2bc eeb6 56bc 8b46 d03a 63e5 ed3c
00000010: 01a9 0a3e d747 a03d d4f9 8dbc 667f 46bc
00000020: ee36 283b 2713 f93c b1fb e23d 176a 933d
00000030: 6668 4b3c 119c 123c 03e2 12bd b668 013d
00000040: 622d 87bc 880e dcbb 38d3 a1bc 688b 65bc
00000050: 644f 60ba c7b7 f03c 78e7 083e aca8 a83d

bias_hh_l2 f4 [24]
-0.019787045 -0.013105085 0.0015888314 0.029040024 0.13540989 0.078261815 -0.017330935 -0.012115378
0.0025668973 0.03040466 0.11083205 0.07197986 0.012415079 0.008948267 -0.03586 0.031594057
-0.016500972 -0.0067157713 -0.019753886 -0.014010552 -0.0008557184 0.029384533 0.13369603 0.082353264
00000000: 7118 a2bc b6b6 56bc 5640 d03a 58e5 ed3c
00000010: e4a8 0a3e bb47 a03d 9bf9 8dbc 947f 46bc
00000020: 6439 283b 3213 f93c eafb e23d 2d6a 933d
00000030: 9e68 4b3c c19b 123c efe1 12bd c568 013d
00000040: 0c2d 87bc f90f dcbb e7d2 a1bc 848c 65bc
00000050: 4a52 60ba d5b7 f03c 9de7 083e d4a8 a83d
